…
ce ID 0
I0424 09:25:34.074820 173392 caffe.cpp:279] GPU device name: Tesla K80
I0424 09:25:34.528821 173392 net.cpp:294] The NetState phase (1) differed from the phase (0) specified by a rule in layer data
I0424 09:25:34.529913 173392 net.cpp:51] Initializing net from parameters: 
name: "GoogleNet"
state {
  phase: TEST
  level: 0
  stage: ""
}
layer {
  name: "data"
  type: "HDF5Data"
  top: "data"
  top: "label"
  include {
    phase: TEST
  }
  hdf5_data_param {
    source: "/local/tmp/jem_googlenet/type/test.txt"
    batch_size: 10
  }
}
layer {
  name: "conv1/7x7_s2"
  type: "Convolution"
  bottom: "data"
  top: "conv1/7x7_s2"
  param {
    lr_mult: 1
    decay_mult: 1
  }
  param {
    lr_mult: 2
    decay_mult: 0
  }
  convolution_param {
    num_output: 64
    pad: 3
    kernel_size: 7
    stride: 2
    weight_filler {
      type: "xavier"
    }
    bias_filler {
      type: "constant"
      value: 0.2
    }
  }
}
layer {
  name: "conv1/relu_7x7"
  type: "ReLU"
  bottom: "conv1/7x7_s2"
  top: "conv1/7x7_s2"
}
layer {
  name: "pool1/3x3_s2"
  type: "Pooling"
  bottom: "conv1/7x7_s2"
  top: "pool1/3x3_s2"
  pooling_param {
    pool: MAX
    kernel_size: 3
    stride: 2
  }
}
layer {
  name: "pool1/norm1"
  type: "LRN"
  bottom: "pool1/3x3_s2"
  top: "pool1/norm1"
  lrn_param {
    local_size: 5
    alpha: 0.0001
    beta: 0.75
  }
}
layer {
  name: "conv2/3x3_reduce"
  type: "Convolution"
  bottom: "pool1/norm1"
  top: "conv2/3x3_reduce"
  param {
    lr_mult: 1
    decay_mult: 1
  }
  param {
    lr_mult: 2
    decay_mult: 0
  }
  convolution_param {
    num_output: 64
    kernel_size: 1
    weight_filler {
      type: "xavier"
    }
    bias_filler {
      type: "constant"
      value: 0.2
    }
  }
}
layer {
  name: "conv2/relu_3x3_reduce"
  type: "ReLU"
  bottom: "conv2/3x3_reduce"
  top: "conv2/3x3_reduce"
}
layer {
  name: "conv2/3x3"
  type: "Convolution"
  bottom: "conv2/3x3_reduce"
  top: "conv2/3x3"
  param {
    lr_mult: 1
    decay_mult: 1
  }
  param {
    lr_mult: 2
    decay_mult: 0
  }
  convolution_param {
    num_output: 192
    pad: 1
    kernel_size: 3
    weight_filler {
      type: "xavier"
    }
    bias_filler {
      type: "constant"
      value: 0.2
    }
  }
}
layer {
  name: "conv2/relu_3x3"
  type: "ReLU"
  bottom: "conv2/3x3"
  top: "conv2/3x3"
}
layer {
  name: "conv2/norm2"
  type: "LRN"
  bottom: "conv2/3x3"
  top: "conv2/norm2"
  lrn_param {
    local_size: 5
    alpha: 0.0001
    beta: 0.75
  }
}
layer {
  name: "pool2/3x3_s2"
  type: "Pooling"
  bottom: "conv2/norm2"
  top: "pool2/3x3_s2"
  pooling_param {
    pool: MAX
    kernel_size: 3
    stride: 2
  }
}
layer {
  name: "inception_3a/1x1"
  type: "Convolution"
  bottom: "pool2/3x3_s2"
  top: "inception_3a/1x1"
  param {
    lr_mult: 1
    decay_mult: 1
  }
  param {
    lr_mult: 2
    decay_mult: 0
  }
  convolution_param {
    num_output: 64
    kernel_size: 1
    weight_filler {
      type: "xavier"
    }
    bias_filler {
      type: "constant"
      value: 0.2
    }
  }
}
layer {
  name: "inception_3a/relu_1x1"
  type: "ReLU"
  bottom: "inception_3a/1x1"
  top: "inception_3a/1x1"
}
layer {
  name: "inception_3a/3x3_reduce"
  type: "Convolution"
  bottom: "pool2/3x3_s2"
  top: "inception_3a/3x3_reduce"
  param {
    lr_mult: 1
    decay_mult: 1
  }
  param {
    lr_mult: 2
    decay_mult: 0
  }
  convolution_param {
    num_output: 96
    kernel_size: 1
    weight_filler {
      type: "xavier"
    }
    bias_filler {
      type: "constant"
      value: 0.2
    }
  }
}
layer {
  name: "inception_3a/relu_3x3_reduce"
  type: "ReLU"
  bottom: "inception_3a/3x3_reduce"
  top: "inception_3a/3x3_reduce"
}
layer {
  name: "inception_3a/3x3"
  type: "Convolution"
  bottom: "inception_3a/3x3_reduce"
  top: "inception_3a/3x3"
  param {
    lr_mult: 1
    decay_mult: 1
  }
  param {
    lr_mult: 2
    decay_mult: 0
  }
  convolution_param {
    num_output: 128
    pad: 1
    kernel_size: 3
    weight_filler {
      type: "xavier"
    }
    bias_filler {
      type: "constant"
      value: 0.2
    }
  }
}
layer {
  name: "inception_3a/relu_3x3"
  type: "ReLU"
  bottom: "inception_3a/3x3"
  top: "inception_3a/3x3"
}
layer {
  name: "inception_3a/5x5_reduce"
  type: "Convolution"
  bottom: "pool2/3x3_s2"
  top: "inception_3a/5x5_reduce"
  param {
    lr_mult: 1
    decay_mult: 1
  }
  param {
    lr_mult: 2
    decay_mult: 0
  }
  convolution_param {
    num_output: 16
    kernel_size: 1
    weight_filler {
      type: "xavier"
    }
    bias_filler {
      type: "constant"
      value: 0.2
    }
  }
}
layer {
  name: "inception_3a/relu_5x5_reduce"
  type: "ReLU"
  bottom: "inception_3a/5x5_reduce"
  top: "inception_3a/5x5_reduce"
}
layer {
  name: "inception_3a/5x5"
  type: "Convolution"
  bottom: "inception_3a/5x5_reduce"
  top: "inception_3a/5x5"
  param {
    lr_mult: 1
    decay_mult: 1
  }
  param {
    lr_mult: 2
    decay_mult: 0
  }
  convolution_param {
    num_output: 32
    pad: 2
    kernel_size: 5
    weight_filler {
      type: "xavier"
    }
    bias_filler {
      type: "constant"
      value: 0.2
    }
  }
}
layer {
  name: "inception_3a/relu_5x5"
  type: "ReLU"
  bottom: "inception_3a/5x5"
  top: "inception_3a/5x5"
}
layer {
  name: "inception_3a/pool"
  type: "Pooling"
  bottom: "pool2/3x3_s2"
  top: "inception_3a/pool"
  pooling_param {
    pool: MAX
    kernel_size: 3
    stride: 1
    pad: 1
  }
}
layer {
  name: "inception_3a/pool_proj"
  type: "Convolution"
  bottom: "inception_3a/pool"
  top: "inception_3a/pool_proj"
  param {
    lr_mult: 1
    decay_mult: 1
  }
  param {
    lr_mult: 2
    decay_mult: 0
  }
  convolution_param {
    num_output: 32
    kernel_size: 1
    weight_filler {
      type: "xavier"
    }
    bias_filler {
      type: "constant"
      value: 0.2
    }
  }
}
layer {
  name: "inception_3a/relu_pool_proj"
  type: "ReLU"
  bottom: "inception_3a/pool_proj"
  top: "inception_3a/pool_proj"
}
layer {
  name: "inception_3a/output"
  type: "Concat"
  bottom: "inception_3a/1x1"
  bottom: "inception_3a/3x3"
  bottom: "inception_3a/5x5"
  bottom: "inception_3a/pool_proj"
  top: "inception_3a/output"
}
layer {
  name: "inception_3b/1x1"
  type: "Convolution"
  bottom: "inception_3a/output"
  top: "inception_3b/1x1"
  param {
    lr_mult: 1
    decay_mult: 1
  }
  param {
    lr_mult: 2
    decay_mult: 0
  }
  convolution_param {
    num_output: 128
    kernel_size: 1
    weight_filler {
      type: "xavier"
    }
    bias_filler {
      type: "constant"
      value: 0.2
    }
  }
}
layer {
  name: "inception_3b/relu_1x1"
  type: "ReLU"
  bottom: "inception_3b/1x1"
  top: "inception_3b/1x1"
}
layer {
  name: "inception_3b/3x3_reduce"
  type: "Convolution"
  bottom: "inception_3a/output"
  top: "inception_3b/3x3_reduce"
  param {
    lr_mult: 1
    decay_mult: 1
  }
  param {
    lr_mult: 2
    decay_mult: 0
  }
  convolution_param {
    num_output: 128
    kernel_size: 1
    weight_filler {
      type: "xavier"
    }
    bias_filler {
      type: "constant"
      value: 0.2
    }
  }
}
layer {
  name: "inception_3b/relu_3x3_reduce"
  type: "ReLU"
  bottom: "inception_3b/3x3_reduce"
  top: "inception_3b/3x3_reduce"
}
layer {
  name: "inception_3b/3x3"
  type: "Convolution"
  bottom: "inception_3b/3x3_reduce"
  top: "inception_3b/3x3"
  param {
    lr_mult: 1
    decay_mult: 1
  }
  param {
    lr_mult: 2
    decay_mult: 0
  }
  convolution_param {
    num_output: 192
    pad: 1
    kernel_size: 3
    weight_filler {
      type: "xavier"
    }
    bias_filler {
      type: "constant"
      value: 0.2
    }
  }
}
layer {
  name: "inception_3b/relu_3x3"
  type: "ReLU"
  bottom: "inception_3b/3x3"
  top: "inception_3b/3x3"
}
layer {
  name: "inception_3b/5x5_reduce"
  type: "Convolution"
  bottom: "inception_3a/output"
  top: "inception_3b/5x5_reduce"
  param {
    lr_mult: 1
    decay_mult: 1
  }
  param {
    lr_mult: 2
    decay_mult: 0
  }
  convolution_param {
    num_output: 32
    kernel_size: 1
    weight_filler {
      type: "xavier"
    }
    bias_filler {
      type: "constant"
      value: 0.2
    }
  }
}
layer {
  name: "inception_3b/relu_5x5_reduce"
  type: "ReLU"
  bottom: "inception_3b/5x5_reduce"
  top: "inception_3b/5x5_reduce"
}
layer {
  name: "inception_3b/5x5"
  type: "Convolution"
  bottom: "inception_3b/5x5_reduce"
  top: "inception_3b/5x5"
  param {
    lr_mult: 1
    decay_mult: 1
  }
  param {
    lr_mult: 2
    decay_mult: 0
  }
  convolution_param {
    num_output: 96
    pad: 2
    kernel_size: 5
    weight_filler {
      type: "xavier"
    }
    bias_filler {
      type: "constant"
      value: 0.2
    }
  }
}
layer {
  name: "inception_3b/relu_5x5"
  type: "ReLU"
  bottom: "inception_3b/5x5"
  top: "inception_3b/5x5"
}
layer {
  name: "inception_3b/pool"
  type: "Pooling"
  bottom: "inception_3a/output"
  top: "inception_3b/pool"
  pooling_param {
    pool: MAX
    kernel_size: 3
    stride: 1
    pad: 1
  }
}
layer {
  name: "inception_3b/pool_proj"
  type: "Convolution"
  bottom: "inception_3b/pool"
  top: "inception_3b/pool_proj"
  param {
    lr_mult: 1
    decay_mult: 1
  }
  param {
    lr_mult: 2
    decay_mult: 0
  }
  convolution_param {
    num_output: 64
    kernel_size: 1
    weight_filler {
      type: "xavier"
    }
    bias_filler {
      type: "constant"
      value: 0.2
    }
  }
}
layer {
  name: "inception_3b/relu_pool_proj"
  type: "ReLU"
  bottom: "inception_3b/pool_proj"
  top: "inception_3b/pool_proj"
}
layer {
  name: "inception_3b/output"
  type: "Concat"
  bottom: "inception_3b/1x1"
  bottom: "inception_3b/3x3"
  bottom: "inception_3b/5x5"
  bottom: "inception_3b/pool_proj"
  top: "inception_3b/output"
}
layer {
  name: "pool3/3x3_s2"
  type: "Pooling"
  bottom: "inception_3b/output"
  top: "pool3/3x3_s2"
  pooling_param {
    pool: MAX
    kernel_size: 3
    stride: 2
  }
}
layer {
  name: "inception_4a/1x1"
  type: "Convolution"
  bottom: "pool3/3x3_s2"
  top: "inception_4a/1x1"
  param {
    lr_mult: 1
    decay_mult: 1
  }
  param {
    lr_mult: 2
    decay_mult: 0
  }
  convolution_param {
    num_output: 192
    kernel_size: 1
    weight_filler {
      type: "xavier"
    }
    bias_filler {
      type: "constant"
      value: 0.2
    }
  }
}
layer {
  name: "inception_4a/relu_1x1"
  type: "ReLU"
  bottom: "inception_4a/1x1"
  top: "inception_4a/1x1"
}
layer {
  name: "inception_4a/3x3_reduce"
  type: "Convolution"
  bottom: "pool3/3x3_s2"
  top: "inception_4a/3x3_reduce"
  param {
    lr_mult: 1
    decay_mult: 1
  }
  param {
    lr_mult: 2
    decay_mult: 0
  }
  convolution_param {
    num_output: 96
    kernel_size: 1
    weight_filler {
      type: "xavier"
    }
    bias_filler {
      type: "constant"
      value: 0.2
    }
  }
}
layer {
  name: "inception_4a/relu_3x3_reduce"
  type: "ReLU"
  bottom: "inception_4a/3x3_reduce"
  top: "inception_4a/3x3_reduce"
}
layer {
  name: "inception_4a/3x3"
  type: "Convolution"
  bottom: "inception_4a/3x3_reduce"
  top: "inception_4a/3x3"
  param {
    lr_mult: 1
    decay_mult: 1
  }
  param {
    lr_mult: 2
    decay_mult: 0
  }
  convolution_param {
    num_output: 208
    pad: 1
    kernel_size: 3
    weight_filler {
      type: "xavier"
    }
    bias_filler {
      type: "constant"
      value: 0.2
    }
  }
}
layer {
  name: "inception_4a/relu_3x3"
  type: "ReLU"
  bottom: "inception_4a/3x3"
  top: "inception_4a/3x3"
}
layer {
  name: "inception_4a/5x5_reduce"
  type: "Convolution"
  bottom: "pool3/3x3_s2"
  top: "inception_4a/5x5_reduce"
  param {
    lr_mult: 1
    decay_mult: 1
  }
  param {
    lr_mult: 2
    decay_mult: 0
  }
  convolution_param {
    num_output: 16
    kernel_size: 1
    weight_filler {
      type: "xavier"
    }
    bias_filler {
      type: "constant"
      value: 0.2
    }
  }
}
layer {
  name: "inception_4a/relu_5x5_reduce"
  type: "ReLU"
  bottom: "inception_4a/5x5_reduce"
  top: "inception_4a/5x5_reduce"
}
layer {
  name: "inception_4a/5x5"
  type: "Convolution"
  bottom: "inception_4a/5x5_reduce"
  top: "inception_4a/5x5"
  param {
    lr_mult: 1
    decay_mult: 1
  }
  param {
    lr_mult: 2
    decay_mult: 0
  }
  convolution_param {
    num_output: 48
    pad: 2
    kernel_size: 5
    weight_filler {
      type: "xavier"
    }
    bias_filler {
      type: "constant"
      value: 0.2
    }
  }
}
layer {
  name: "inception_4a/relu_5x5"
  type: "ReLU"
  bottom: "inception_4a/5x5"
  top: "inception_4a/5x5"
}
layer {
  name: "inception_4a/pool"
  type: "Pooling"
  bottom: "pool3/3x3_s2"
  top: "inception_4a/pool"
  pooling_param {
    pool: MAX
    kernel_size: 3
    stride: 1
    pad: 1
  }
}
layer {
  name: "inception_4a/pool_proj"
  type: "Convolution"
  bottom: "inception_4a/pool"
  top: "inception_4a/pool_proj"
  param {
    lr_mult: 1
    decay_mult: 1
  }
  param {
    lr_mult: 2
    decay_mult: 0
  }
  convolution_param {
    num_output: 64
    kernel_size: 1
    weight_filler {
      type: "xavier"
    }
    bias_filler {
      type: "constant"
      value: 0.2
    }
  }
}
layer {
  name: "inception_4a/relu_pool_proj"
  type: "ReLU"
  bottom: "inception_4a/pool_proj"
  top: "inception_4a/pool_proj"
}
layer {
  name: "inception_4a/output"
  type: "Concat"
  bottom: "inception_4a/1x1"
  bottom: "inception_4a/3x3"
  bottom: "inception_4a/5x5"
  bottom: "inception_4a/pool_proj"
  top: "inception_4a/output"
}
layer {
  name: "loss1/ave_pool"
  type: "Pooling"
  bottom: "inception_4a/output"
  top: "loss1/ave_pool"
  pooling_param {
    pool: AVE
    kernel_size: 5
    stride: 3
  }
}
layer {
  name: "loss1/conv"
  type: "Convolution"
  bottom: "loss1/ave_pool"
  top: "loss1/conv"
  param {
    lr_mult: 1
    decay_mult: 1
  }
  param {
    lr_mult: 2
    decay_mult: 0
  }
  convolution_param {
    num_output: 128
    kernel_size: 1
    weight_filler {
      type: "xavier"
    }
    bias_filler {
      type: "constant"
      value: 0.2
    }
  }
}
layer {
  name: "loss1/relu_conv"
  type: "ReLU"
  bottom: "loss1/conv"
  top: "loss1/conv"
}
layer {
  name: "loss1/fc"
  type: "InnerProduct"
  bottom: "loss1/conv"
  top: "loss1/fc"
  param {
    lr_mult: 1
    decay_mult: 1
  }
  param {
    lr_mult: 2
    decay_mult: 0
  }
  inner_product_param {
    num_output: 1024
    weight_filler {
      type: "xavier"
    }
    bias_filler {
      type: "constant"
      value: 0.2
    }
  }
}
layer {
  name: "loss1/relu_fc"
  type: "ReLU"
  bottom: "loss1/fc"
  top: "loss1/fc"
}
layer {
  name: "loss1/drop_fc"
  type: "Dropout"
  bottom: "loss1/fc"
  top: "loss1/fc"
  dropout_param {
    dropout_ratio: 0.7
  }
}
layer {
  name: "loss1/classifier"
  type: "InnerProduct"
  bottom: "loss1/fc"
  top: "loss1/classifier"
  param {
    lr_mult: 1
    decay_mult: 1
  }
  param {
    lr_mult: 2
    decay_mult: 0
  }
  inner_product_param {
    num_output: 1000
    weight_filler {
      type: "xavier"
    }
    bias_filler {
      type: "constant"
      value: 0
    }
  }
}
layer {
  name: "loss1/loss"
  type: "SoftmaxWithLoss"
  bottom: "loss1/classifier"
  bottom: "label"
  top: "loss1/loss1"
  loss_weight: 0.3
}
layer {
  name: "loss1/top-1"
  type: "Accuracy"
  bottom: "loss1/classifier"
  bottom: "label"
  top: "loss1/top-1"
  include {
    phase: TEST
  }
}
layer {
  name: "loss1/top-5"
  type: "Accuracy"
  bottom: "loss1/classifier"
  bottom: "label"
  top: "loss1/top-5"
  include {
    phase: TEST
  }
  accuracy_param {
    top_k: 5
  }
}
layer {
  name: "inception_4b/1x1"
  type: "Convolution"
  bottom: "inception_4a/output"
  top: "inception_4b/1x1"
  param {
    lr_mult: 1
    decay_mult: 1
  }
  param {
    lr_mult: 2
    decay_mult: 0
  }
  convolution_param {
    num_output: 160
    kernel_size: 1
    weight_filler {
      type: "xavier"
    }
    bias_filler {
      type: "constant"
      value: 0.2
    }
  }
}
layer {
  name: "inception_4b/relu_1x1"
  type: "ReLU"
  bottom: "inception_4b/1x1"
  top: "inception_4b/1x1"
}
layer {
  name: "inception_4b/3x3_reduce"
  type: "Convolution"
  bottom: "inception_4a/output"
  top: "inception_4b/3x3_reduce"
  param {
    lr_mult: 1
    decay_mult: 1
  }
  param {
    lr_mult: 2
    decay_mult: 0
  }
  convolution_param {
    num_output: 112
    kernel_size: 1
    weight_filler {
      type: "xavier"
    }
    bias_filler {
      type: "constant"
      value: 0.2
    }
  }
}
layer {
  name: "inception_4b/relu_3x3_reduce"
  type: "ReLU"
  bottom: "inception_4b/3x3_reduce"
  top: "inception_4b/3x3_reduce"
}
layer {
  name: "inception_4b/3x3"
  type: "Convolution"
  bottom: "inception_4b/3x3_reduce"
  top: "inception_4b/3x3"
  param {
    lr_mult: 1
    decay_mult: 1
  }
  param {
    lr_mult: 2
    decay_mult: 0
  }
  convolution_param {
    num_output: 224
    pad: 1
    kernel_size: 3
    weight_filler {
      type: "xavier"
    }
    bias_filler {
      type: "constant"
      value: 0.2
    }
  }
}
layer {
  name: "inception_4b/relu_3x3"
  type: "ReLU"
  bottom: "inception_4b/3x3"
  top: "inception_4b/3x3"
}
layer {
  name: "inception_4b/5x5_reduce"
  type: "Convolution"
  bottom: "inception_4a/output"
  top: "inception_4b/5x5_reduce"
  param {
    lr_mult: 1
    decay_mult: 1
  }
  param {
    lr_mult: 2
    decay_mult: 0
  }
  convolution_param {
    num_output: 24
    kernel_size: 1
    weight_filler {
      type: "xavier"
    }
    bias_filler {
      type: "constant"
      value: 0.2
    }
  }
}
layer {
  name: "inception_4b/relu_5x5_reduce"
  type: "ReLU"
  bottom: "inception_4b/5x5_reduce"
  top: "inception_4b/5x5_reduce"
}
layer {
  name: "inception_4b/5x5"
  type: "Convolution"
  bottom: "inception_4b/5x5_reduce"
  top: "inception_4b/5x5"
  param {
    lr_mult: 1
    decay_mult: 1
  }
  param {
    lr_mult: 2
    decay_mult: 0
  }
  convolution_param {
    num_output: 64
    pad: 2
    kernel_size: 5
    weight_filler {
      type: "xavier"
    }
    bias_filler {
      type: "constant"
      value: 0.2
    }
  }
}
layer {
  name: "inception_4b/relu_5x5"
  type: "ReLU"
  bottom: "inception_4b/5x5"
  top: "inception_4b/5x5"
}
layer {
  name: "inception_4b/pool"
  type: "Pooling"
  bottom: "inception_4a/output"
  top: "inception_4b/pool"
  pooling_param {
    pool: MAX
    kernel_size: 3
    stride: 1
    pad: 1
  }
}
layer {
  name: "inception_4b/pool_proj"
  type: "Convolution"
  bottom: "inception_4b/pool"
  top: "inception_4b/pool_proj"
  param {
    lr_mult: 1
    decay_mult: 1
  }
  param {
    lr_mult: 2
    decay_mult: 0
  }
  convolution_param {
    num_output: 64
    kernel_size: 1
    weight_filler {
      type: "xavier"
    }
    bias_filler {
      type: "constant"
      value: 0.2
    }
  }
}
layer {
  name: "inception_4b/relu_pool_proj"
  type: "ReLU"
  bottom: "inception_4b/pool_proj"
  top: "inception_4b/pool_proj"
}
layer {
  name: "inception_4b/output"
  type: "Concat"
  bottom: "inception_4b/1x1"
  bottom: "inception_4b/3x3"
  bottom: "inception_4b/5x5"
  bottom: "inception_4b/pool_proj"
  top: "inception_4b/output"
}
layer {
  name: "inception_4c/1x1"
  type: "Convolution"
  bottom: "inception_4b/output"
  top: "inception_4c/1x1"
  param {
    lr_mult: 1
    decay_mult: 1
  }
  param {
    lr_mult: 2
    decay_mult: 0
  }
  convolution_param {
    num_output: 128
    kernel_size: 1
    weight_filler {
      type: "xavier"
    }
    bias_filler {
      type: "constant"
      value: 0.2
    }
  }
}
layer {
  name: "inception_4c/relu_1x1"
  type: "ReLU"
  bottom: "inception_4c/1x1"
  top: "inception_4c/1x1"
}
layer {
  name: "inception_4c/3x3_reduce"
  type: "Convolution"
  bottom: "inception_4b/output"
  top: "inception_4c/3x3_reduce"
  param {
    lr_mult: 1
    decay_mult: 1
  }
  param {
    lr_mult: 2
    decay_mult: 0
  }
  convolution_param {
    num_output: 128
    kernel_size: 1
    weight_filler {
      type: "xavier"
    }
    bias_filler {
      type: "constant"
      value: 0.2
    }
  }
}
layer {
  name: "inception_4c/relu_3x3_reduce"
  type: "ReLU"
  bottom: "inception_4c/3x3_reduce"
  top: "inception_4c/3x3_reduce"
}
layer {
  name: "inception_4c/3x3"
  type: "Convolution"
  bottom: "inception_4c/3x3_reduce"
  top: "inception_4c/3x3"
  param {
    lr_mult: 1
    decay_mult: 1
  }
  param {
    lr_mult: 2
    decay_mult: 0
  }
  convolution_param {
    num_output: 256
    pad: 1
    kernel_size: 3
    weight_filler {
      type: "xavier"
    }
    bias_filler {
      type: "constant"
      value: 0.2
    }
  }
}
layer {
  name: "inception_4c/relu_3x3"
  type: "ReLU"
  bottom: "inception_4c/3x3"
  top: "inception_4c/3x3"
}
layer {
  name: "inception_4c/5x5_reduce"
  type: "Convolution"
  bottom: "inception_4b/output"
  top: "inception_4c/5x5_reduce"
  param {
    lr_mult: 1
    decay_mult: 1
  }
  param {
    lr_mult: 2
    decay_mult: 0
  }
  convolution_param {
    num_output: 24
    kernel_size: 1
    weight_filler {
      type: "xavier"
    }
    bias_filler {
      type: "constant"
      value: 0.2
    }
  }
}
layer {
  name: "inception_4c/relu_5x5_reduce"
  type: "ReLU"
  bottom: "inception_4c/5x5_reduce"
  top: "inception_4c/5x5_reduce"
}
layer {
  name: "inception_4c/5x5"
  type: "Convolution"
  bottom: "inception_4c/5x5_reduce"
  top: "inception_4c/5x5"
  param {
    lr_mult: 1
    decay_mult: 1
  }
  param {
    lr_mult: 2
    decay_mult: 0
  }
  convolution_param {
    num_output: 64
    pad: 2
    kernel_size: 5
    weight_filler {
      type: "xavier"
    }
    bias_filler {
      type: "constant"
      value: 0.2
    }
  }
}
layer {
  name: "inception_4c/relu_5x5"
  type: "ReLU"
  bottom: "inception_4c/5x5"
  top: "inception_4c/5x5"
}
layer {
  name: "inception_4c/pool"
  type: "Pooling"
  bottom: "inception_4b/output"
  top: "inception_4c/pool"
  pooling_param {
    pool: MAX
    kernel_size: 3
    stride: 1
    pad: 1
  }
}
layer {
  name: "inception_4c/pool_proj"
  type: "Convolution"
  bottom: "inception_4c/pool"
  top: "inception_4c/pool_proj"
  param {
    lr_mult: 1
    decay_mult: 1
  }
  param {
    lr_mult: 2
    decay_mult: 0
  }
  convolution_param {
    num_output: 64
    kernel_size: 1
    weight_filler {
      type: "xavier"
    }
    bias_filler {
      type: "constant"
      value: 0.2
    }
  }
}
layer {
  name: "inception_4c/relu_pool_proj"
  type: "ReLU"
  bottom: "inception_4c/pool_proj"
  top: "inception_4c/pool_proj"
}
layer {
  name: "inception_4c/output"
  type: "Concat"
  bottom: "inception_4c/1x1"
  bottom: "inception_4c/3x3"
  bottom: "inception_4c/5x5"
  bottom: "inception_4c/pool_proj"
  top: "inception_4c/output"
}
layer {
  name: "inception_4d/1x1"
  type: "Convolution"
  bottom: "inception_4c/output"
  top: "inception_4d/1x1"
  param {
    lr_mult: 1
    decay_mult: 1
  }
  param {
    lr_mult: 2
    decay_mult: 0
  }
  convolution_param {
    num_output: 112
    kernel_size: 1
    weight_filler {
      type: "xavier"
    }
    bias_filler {
      type: "constant"
      value: 0.2
    }
  }
}
layer {
  name: "inception_4d/relu_1x1"
  type: "ReLU"
  bottom: "inception_4d/1x1"
  top: "inception_4d/1x1"
}
layer {
  name: "inception_4d/3x3_reduce"
  type: "Convolution"
  bottom: "inception_4c/output"
  top: "inception_4d/3x3_reduce"
  param {
    lr_mult: 1
    decay_mult: 1
  }
  param {
    lr_mult: 2
    decay_mult: 0
  }
  convolution_param {
    num_output: 144
    kernel_size: 1
    weight_filler {
      type: "xavier"
    }
    bias_filler {
      type: "constant"
      value: 0.2
    }
  }
}
layer {
  name: "inception_4d/relu_3x3_reduce"
  type: "ReLU"
  bottom: "inception_4d/3x3_reduce"
  top: "inception_4d/3x3_reduce"
}
layer {
  name: "inception_4d/3x3"
  type: "Convolution"
  bottom: "inception_4d/3x3_reduce"
  top: "inception_4d/3x3"
  param {
    lr_mult: 1
    decay_mult: 1
  }
  param {
    lr_mult: 2
    decay_mult: 0
  }
  convolution_param {
    num_output: 288
    pad: 1
    kernel_size: 3
    weight_filler {
      type: "xavier"
    }
    bias_filler {
      type: "constant"
      value: 0.2
    }
  }
}
layer {
  name: "inception_4d/relu_3x3"
  type: "ReLU"
  bottom: "inception_4d/3x3"
  top: "inception_4d/3x3"
}
layer {
  name: "inception_4d/5x5_reduce"
  type: "Convolution"
  bottom: "inception_4c/output"
  top: "inception_4d/5x5_reduce"
  param {
    lr_mult: 1
    decay_mult: 1
  }
  param {
    lr_mult: 2
    decay_mult: 0
  }
  convolution_param {
    num_output: 32
    kernel_size: 1
    weight_filler {
      type: "xavier"
    }
    bias_filler {
      type: "constant"
      value: 0.2
    }
  }
}
layer {
  name: "inception_4d/relu_5x5_reduce"
  type: "ReLU"
  bottom: "inception_4d/5x5_reduce"
  top: "inception_4d/5x5_reduce"
}
layer {
  name: "inception_4d/5x5"
  type: "Convolution"
  bottom: "inception_4d/5x5_reduce"
  top: "inception_4d/5x5"
  param {
    lr_mult: 1
    decay_mult: 1
  }
  param {
    lr_mult: 2
    decay_mult: 0
  }
  convolution_param {
    num_output: 64
    pad: 2
    kernel_size: 5
    weight_filler {
      type: "xavier"
    }
    bias_filler {
      type: "constant"
      value: 0.2
    }
  }
}
layer {
  name: "inception_4d/relu_5x5"
  type: "ReLU"
  bottom: "inception_4d/5x5"
  top: "inception_4d/5x5"
}
layer {
  name: "inception_4d/pool"
  type: "Pooling"
  bottom: "inception_4c/output"
  top: "inception_4d/pool"
  pooling_param {
    pool: MAX
    kernel_size: 3
    stride: 1
    pad: 1
  }
}
layer {
  name: "inception_4d/pool_proj"
  type: "Convolution"
  bottom: "inception_4d/pool"
  top: "inception_4d/pool_proj"
  param {
    lr_mult: 1
    decay_mult: 1
  }
  param {
    lr_mult: 2
    decay_mult: 0
  }
  convolution_param {
    num_output: 64
    kernel_size: 1
    weight_filler {
      type: "xavier"
    }
    bias_filler {
      type: "constant"
      value: 0.2
    }
  }
}
layer {
  name: "inception_4d/relu_pool_proj"
  type: "ReLU"
  bottom: "inception_4d/pool_proj"
  top: "inception_4d/pool_proj"
}
layer {
  name: "inception_4d/output"
  type: "Concat"
  bottom: "inception_4d/1x1"
  bottom: "inception_4d/3x3"
  bottom: "inception_4d/5x5"
  bottom: "inception_4d/pool_proj"
  top: "inception_4d/output"
}
layer {
  name: "loss2/ave_pool"
  type: "Pooling"
  bottom: "inception_4d/output"
  top: "loss2/ave_pool"
  pooling_param {
    pool: AVE
    kernel_size: 5
    stride: 3
  }
}
layer {
  name: "loss2/conv"
  type: "Convolution"
  bottom: "loss2/ave_pool"
  top: "loss2/conv"
  param {
    lr_mult: 1
    decay_mult: 1
  }
  param {
    lr_mult: 2
    decay_mult: 0
  }
  convolution_param {
    num_output: 128
    kernel_size: 1
    weight_filler {
      type: "xavier"
    }
    bias_filler {
      type: "constant"
      value: 0.2
    }
  }
}
layer {
  name: "loss2/relu_conv"
  type: "ReLU"
  bottom: "loss2/conv"
  top: "loss2/conv"
}
layer {
  name: "loss2/fc"
  type: "InnerProduct"
  bottom: "loss2/conv"
  top: "loss2/fc"
  param {
    lr_mult: 1
    decay_mult: 1
  }
  param {
    lr_mult: 2
    decay_mult: 0
  }
  inner_product_param {
    num_output: 1024
    weight_filler {
      type: "xavier"
    }
    bias_filler {
      type: "constant"
      value: 0.2
    }
  }
}
layer {
  name: "loss2/relu_fc"
  type: "ReLU"
  bottom: "loss2/fc"
  top: "loss2/fc"
}
layer {
  name: "loss2/drop_fc"
  type: "Dropout"
  bottom: "loss2/fc"
  top: "loss2/fc"
  dropout_param {
    dropout_ratio: 0.7
  }
}
layer {
  name: "loss2/classifier"
  type: "InnerProduct"
  bottom: "loss2/fc"
  top: "loss2/classifier"
  param {
    lr_mult: 1
    decay_mult: 1
  }
  param {
    lr_mult: 2
    decay_mult: 0
  }
  inner_product_param {
    num_output: 1000
    weight_filler {
      type: "xavier"
    }
    bias_filler {
      type: "constant"
      value: 0
    }
  }
}
layer {
  name: "loss2/loss"
  type: "SoftmaxWithLoss"
  bottom: "loss2/classifier"
  bottom: "label"
  top: "loss2/loss2"
  loss_weight: 0.3
}
layer {
  name: "loss2/top-1"
  type: "Accuracy"
  bottom: "loss2/classifier"
  bottom: "label"
  top: "loss2/top-1"
  include {
    phase: TEST
  }
}
layer {
  name: "loss2/top-5"
  type: "Accuracy"
  bottom: "loss2/classifier"
  bottom: "label"
  top: "loss2/top-5"
  include {
    phase: TEST
  }
  accuracy_param {
    top_k: 5
  }
}
layer {
  name: "inception_4e/1x1"
  type: "Convolution"
  bottom: "inception_4d/output"
  top: "inception_4e/1x1"
  param {
    lr_mult: 1
    decay_mult: 1
  }
  param {
    lr_mult: 2
    decay_mult: 0
  }
  convolution_param {
    num_output: 256
    kernel_size: 1
    weight_filler {
      type: "xavier"
    }
    bias_filler {
      type: "constant"
      value: 0.2
    }
  }
}
layer {
  name: "inception_4e/relu_1x1"
  type: "ReLU"
  bottom: "inception_4e/1x1"
  top: "inception_4e/1x1"
}
layer {
  name: "inception_4e/3x3_reduce"
  type: "Convolution"
  bottom: "inception_4d/output"
  top: "inception_4e/3x3_reduce"
  param {
    lr_mult: 1
    decay_mult: 1
  }
  param {
    lr_mult: 2
    decay_mult: 0
  }
  convolution_param {
    num_output: 160
    kernel_size: 1
    weight_filler {
      type: "xavier"
    }
    bias_filler {
      type: "constant"
      value: 0.2
    }
  }
}
layer {
  name: "inception_4e/relu_3x3_reduce"
  type: "ReLU"
  bottom: "inception_4e/3x3_reduce"
  top: "inception_4e/3x3_reduce"
}
layer {
  name: "inception_4e/3x3"
  type: "Convolution"
  bottom: "inception_4e/3x3_reduce"
  top: "inception_4e/3x3"
  param {
    lr_mult: 1
    decay_mult: 1
  }
  param {
    lr_mult: 2
    decay_mult: 0
  }
  convolution_param {
    num_output: 320
    pad: 1
    kernel_size: 3
    weight_filler {
      type: "xavier"
    }
    bias_filler {
      type: "constant"
      value: 0.2
    }
  }
}
layer {
  name: "inception_4e/relu_3x3"
  type: "ReLU"
  bottom: "inception_4e/3x3"
  top: "inception_4e/3x3"
}
layer {
  name: "inception_4e/5x5_reduce"
  type: "Convolution"
  bottom: "inception_4d/output"
  top: "inception_4e/5x5_reduce"
  param {
    lr_mult: 1
    decay_mult: 1
  }
  param {
    lr_mult: 2
    decay_mult: 0
  }
  convolution_param {
    num_output: 32
    kernel_size: 1
    weight_filler {
      type: "xavier"
    }
    bias_filler {
      type: "constant"
      value: 0.2
    }
  }
}
layer {
  name: "inception_4e/relu_5x5_reduce"
  type: "ReLU"
  bottom: "inception_4e/5x5_reduce"
  top: "inception_4e/5x5_reduce"
}
layer {
  name: "inception_4e/5x5"
  type: "Convolution"
  bottom: "inception_4e/5x5_reduce"
  top: "inception_4e/5x5"
  p
I0424 09:25:34.530843 173392 layer_factory.hpp:77] Creating layer data
I0424 09:25:34.530896 173392 net.cpp:84] Creating Layer data
I0424 09:25:34.530937 173392 net.cpp:380] data -> data
I0424 09:25:34.530977 173392 net.cpp:380] data -> label
I0424 09:25:34.531009 173392 hdf5_data_layer.cpp:80] Loading list of HDF5 filenames from: /local/tmp/jem_googlenet/type/test.txt
I0424 09:25:34.531090 173392 hdf5_data_layer.cpp:94] Number of HDF5 files: 1
I0424 09:25:34.533198 173392 hdf5.cpp:35] Datatype class: H5T_INTEGER
I0424 09:25:38.379344 173392 net.cpp:122] Setting up data
I0424 09:25:38.379448 173392 net.cpp:129] Top shape: 10 3 224 224 (1505280)
I0424 09:25:38.379456 173392 net.cpp:129] Top shape: 10 (10)
I0424 09:25:38.379462 173392 net.cpp:137] Memory required for data: 6021160
I0424 09:25:38.379475 173392 layer_factory.hpp:77] Creating layer label_data_1_split
I0424 09:25:38.379509 173392 net.cpp:84] Creating Layer label_data_1_split
I0424 09:25:38.379516 173392 net.cpp:406] label_data_1_split <- label
I0424 09:25:38.379544 173392 net.cpp:380] label_data_1_split -> label_data_1_split_0
I0424 09:25:38.379557 173392 net.cpp:380] label_data_1_split -> label_data_1_split_1
I0424 09:25:38.379617 173392 net.cpp:380] label_data_1_split -> label_data_1_split_2
I0424 09:25:38.379640 173392 net.cpp:380] label_data_1_split -> label_data_1_split_3
I0424 09:25:38.379660 173392 net.cpp:380] label_data_1_split -> label_data_1_split_4
I0424 09:25:38.379680 173392 net.cpp:380] label_data_1_split -> label_data_1_split_5
I0424 09:25:38.379700 173392 net.cpp:380] label_data_1_split -> label_data_1_split_6
I0424 09:25:38.379721 173392 net.cpp:380] label_data_1_split -> label_data_1_split_7
I0424 09:25:38.379741 173392 net.cpp:380] label_data_1_split -> label_data_1_split_8
I0424 09:25:38.379847 173392 net.cpp:122] Setting up label_data_1_split
I0424 09:25:38.379869 173392 net.cpp:129] Top shape: 10 (10)
I0424 09:25:38.379887 173392 net.cpp:129] Top shape: 10 (10)
I0424 09:25:38.379906 173392 net.cpp:129] Top shape: 10 (10)
I0424 09:25:38.379925 173392 net.cpp:129] Top shape: 10 (10)
I0424 09:25:38.379942 173392 net.cpp:129] Top shape: 10 (10)
I0424 09:25:38.379961 173392 net.cpp:129] Top shape: 10 (10)
I0424 09:25:38.379978 173392 net.cpp:129] Top shape: 10 (10)
I0424 09:25:38.379997 173392 net.cpp:129] Top shape: 10 (10)
I0424 09:25:38.380014 173392 net.cpp:129] Top shape: 10 (10)
I0424 09:25:38.380031 173392 net.cpp:137] Memory required for data: 6021520
I0424 09:25:38.380049 173392 layer_factory.hpp:77] Creating layer conv1/7x7_s2
I0424 09:25:38.380102 173392 net.cpp:84] Creating Layer conv1/7x7_s2
I0424 09:25:38.380141 173392 net.cpp:406] conv1/7x7_s2 <- data
I0424 09:25:38.380169 173392 net.cpp:380] conv1/7x7_s2 -> conv1/7x7_s2
I0424 09:25:39.430959 173392 net.cpp:122] Setting up conv1/7x7_s2
I0424 09:25:39.431041 173392 net.cpp:129] Top shape: 10 64 112 112 (8028160)
I0424 09:25:39.431061 173392 net.cpp:137] Memory required for data: 38134160
I0424 09:25:39.431109 173392 layer_factory.hpp:77] Creating layer conv1/relu_7x7
I0424 09:25:39.431164 173392 net.cpp:84] Creating Layer conv1/relu_7x7
I0424 09:25:39.431186 173392 net.cpp:406] conv1/relu_7x7 <- conv1/7x7_s2
I0424 09:25:39.431211 173392 net.cpp:367] conv1/relu_7x7 -> conv1/7x7_s2 (in-place)
I0424 09:25:39.431782 173392 net.cpp:122] Setting up conv1/relu_7x7
I0424 09:25:39.431814 173392 net.cpp:129] Top shape: 10 64 112 112 (8028160)
I0424 09:25:39.431833 173392 net.cpp:137] Memory required for data: 70246800
I0424 09:25:39.431852 173392 layer_factory.hpp:77] Creating layer pool1/3x3_s2
I0424 09:25:39.431880 173392 net.cpp:84] Creating Layer pool1/3x3_s2
I0424 09:25:39.431915 173392 net.cpp:406] pool1/3x3_s2 <- conv1/7x7_s2
I0424 09:25:39.431934 173392 net.cpp:380] pool1/3x3_s2 -> pool1/3x3_s2
I0424 09:25:39.432009 173392 net.cpp:122] Setting up pool1/3x3_s2
I0424 09:25:39.432034 173392 net.cpp:129] Top shape: 10 64 56 56 (2007040)
I0424 09:25:39.432050 173392 net.cpp:137] Memory required for data: 78274960
I0424 09:25:39.432068 173392 layer_factory.hpp:77] Creating layer pool1/norm1
I0424 09:25:39.432104 173392 net.cpp:84] Creating Layer pool1/norm1
I0424 09:25:39.432123 173392 net.cpp:406] pool1/norm1 <- pool1/3x3_s2
I0424 09:25:39.432147 173392 net.cpp:380] pool1/norm1 -> pool1/norm1
I0424 09:25:39.432399 173392 net.cpp:122] Setting up pool1/norm1
I0424 09:25:39.432425 173392 net.cpp:129] Top shape: 10 64 56 56 (2007040)
I0424 09:25:39.432442 173392 net.cpp:137] Memory required for data: 86303120
I0424 09:25:39.432462 173392 layer_factory.hpp:77] Creating layer conv2/3x3_reduce
I0424 09:25:39.432492 173392 net.cpp:84] Creating Layer conv2/3x3_reduce
I0424 09:25:39.432512 173392 net.cpp:406] conv2/3x3_reduce <- pool1/norm1
I0424 09:25:39.432539 173392 net.cpp:380] conv2/3x3_reduce -> conv2/3x3_reduce
I0424 09:25:39.434305 173392 net.cpp:122] Setting up conv2/3x3_reduce
I0424 09:25:39.434339 173392 net.cpp:129] Top shape: 10 64 56 56 (2007040)
I0424 09:25:39.434357 173392 net.cpp:137] Memory required for data: 94331280
I0424 09:25:39.434381 173392 layer_factory.hpp:77] Creating layer conv2/relu_3x3_reduce
I0424 09:25:39.434406 173392 net.cpp:84] Creating Layer conv2/relu_3x3_reduce
I0424 09:25:39.434425 173392 net.cpp:406] conv2/relu_3x3_reduce <- conv2/3x3_reduce
I0424 09:25:39.434451 173392 net.cpp:367] conv2/relu_3x3_reduce -> conv2/3x3_reduce (in-place)
I0424 09:25:39.435066 173392 net.cpp:122] Setting up conv2/relu_3x3_reduce
I0424 09:25:39.435097 173392 net.cpp:129] Top shape: 10 64 56 56 (2007040)
I0424 09:25:39.435117 173392 net.cpp:137] Memory required for data: 102359440
I0424 09:25:39.435149 173392 layer_factory.hpp:77] Creating layer conv2/3x3
I0424 09:25:39.435189 173392 net.cpp:84] Creating Layer conv2/3x3
I0424 09:25:39.435209 173392 net.cpp:406] conv2/3x3 <- conv2/3x3_reduce
I0424 09:25:39.435230 173392 net.cpp:380] conv2/3x3 -> conv2/3x3
I0424 09:25:39.439594 173392 net.cpp:122] Setting up conv2/3x3
I0424 09:25:39.439631 173392 net.cpp:129] Top shape: 10 192 56 56 (6021120)
I0424 09:25:39.439651 173392 net.cpp:137] Memory required for data: 126443920
I0424 09:25:39.439676 173392 layer_factory.hpp:77] Creating layer conv2/relu_3x3
I0424 09:25:39.439702 173392 net.cpp:84] Creating Layer conv2/relu_3x3
I0424 09:25:39.439726 173392 net.cpp:406] conv2/relu_3x3 <- conv2/3x3
I0424 09:25:39.439748 173392 net.cpp:367] conv2/relu_3x3 -> conv2/3x3 (in-place)
I0424 09:25:39.440047 173392 net.cpp:122] Setting up conv2/relu_3x3
I0424 09:25:39.440073 173392 net.cpp:129] Top shape: 10 192 56 56 (6021120)
I0424 09:25:39.440090 173392 net.cpp:137] Memory required for data: 150528400
I0424 09:25:39.440120 173392 layer_factory.hpp:77] Creating layer conv2/norm2
I0424 09:25:39.440166 173392 net.cpp:84] Creating Layer conv2/norm2
I0424 09:25:39.440192 173392 net.cpp:406] conv2/norm2 <- conv2/3x3
I0424 09:25:39.440212 173392 net.cpp:380] conv2/norm2 -> conv2/norm2
I0424 09:25:39.440886 173392 net.cpp:122] Setting up conv2/norm2
I0424 09:25:39.440917 173392 net.cpp:129] Top shape: 10 192 56 56 (6021120)
I0424 09:25:39.440937 173392 net.cpp:137] Memory required for data: 174612880
I0424 09:25:39.440954 173392 layer_factory.hpp:77] Creating layer pool2/3x3_s2
I0424 09:25:39.440974 173392 net.cpp:84] Creating Layer pool2/3x3_s2
I0424 09:25:39.440994 173392 net.cpp:406] pool2/3x3_s2 <- conv2/norm2
I0424 09:25:39.441017 173392 net.cpp:380] pool2/3x3_s2 -> pool2/3x3_s2
I0424 09:25:39.441077 173392 net.cpp:122] Setting up pool2/3x3_s2
I0424 09:25:39.441100 173392 net.cpp:129] Top shape: 10 192 28 28 (1505280)
I0424 09:25:39.441118 173392 net.cpp:137] Memory required for data: 180634000
I0424 09:25:39.441134 173392 layer_factory.hpp:77] Creating layer pool2/3x3_s2_pool2/3x3_s2_0_split
I0424 09:25:39.441164 173392 net.cpp:84] Creating Layer pool2/3x3_s2_pool2/3x3_s2_0_split
I0424 09:25:39.441184 173392 net.cpp:406] pool2/3x3_s2_pool2/3x3_s2_0_split <- pool2/3x3_s2
I0424 09:25:39.441202 173392 net.cpp:380] pool2/3x3_s2_pool2/3x3_s2_0_split -> pool2/3x3_s2_pool2/3x3_s2_0_split_0
I0424 09:25:39.441228 173392 net.cpp:380] pool2/3x3_s2_pool2/3x3_s2_0_split -> pool2/3x3_s2_pool2/3x3_s2_0_split_1
I0424 09:25:39.441251 173392 net.cpp:380] pool2/3x3_s2_pool2/3x3_s2_0_split -> pool2/3x3_s2_pool2/3x3_s2_0_split_2
I0424 09:25:39.441270 173392 net.cpp:380] pool2/3x3_s2_pool2/3x3_s2_0_split -> pool2/3x3_s2_pool2/3x3_s2_0_split_3
I0424 09:25:39.441347 173392 net.cpp:122] Setting up pool2/3x3_s2_pool2/3x3_s2_0_split
I0424 09:25:39.441368 173392 net.cpp:129] Top shape: 10 192 28 28 (1505280)
I0424 09:25:39.441387 173392 net.cpp:129] Top shape: 10 192 28 28 (1505280)
I0424 09:25:39.441406 173392 net.cpp:129] Top shape: 10 192 28 28 (1505280)
I0424 09:25:39.441423 173392 net.cpp:129] Top shape: 10 192 28 28 (1505280)
I0424 09:25:39.441455 173392 net.cpp:137] Memory required for data: 204718480
I0424 09:25:39.441475 173392 layer_factory.hpp:77] Creating layer inception_3a/1x1
I0424 09:25:39.441507 173392 net.cpp:84] Creating Layer inception_3a/1x1
I0424 09:25:39.441527 173392 net.cpp:406] inception_3a/1x1 <- pool2/3x3_s2_pool2/3x3_s2_0_split_0
I0424 09:25:39.441561 173392 net.cpp:380] inception_3a/1x1 -> inception_3a/1x1
I0424 09:25:39.444921 173392 net.cpp:122] Setting up inception_3a/1x1
I0424 09:25:39.444954 173392 net.cpp:129] Top shape: 10 64 28 28 (501760)
I0424 09:25:39.444973 173392 net.cpp:137] Memory required for data: 206725520
I0424 09:25:39.444998 173392 layer_factory.hpp:77] Creating layer inception_3a/relu_1x1
I0424 09:25:39.445029 173392 net.cpp:84] Creating Layer inception_3a/relu_1x1
I0424 09:25:39.445062 173392 net.cpp:406] inception_3a/relu_1x1 <- inception_3a/1x1
I0424 09:25:39.445082 173392 net.cpp:367] inception_3a/relu_1x1 -> inception_3a/1x1 (in-place)
I0424 09:25:39.445683 173392 net.cpp:122] Setting up inception_3a/relu_1x1
I0424 09:25:39.445715 173392 net.cpp:129] Top shape: 10 64 28 28 (501760)
I0424 09:25:39.445734 173392 net.cpp:137] Memory required for data: 208732560
I0424 09:25:39.445752 173392 layer_factory.hpp:77] Creating layer inception_3a/3x3_reduce
I0424 09:25:39.445782 173392 net.cpp:84] Creating Layer inception_3a/3x3_reduce
I0424 09:25:39.445802 173392 net.cpp:406] inception_3a/3x3_reduce <- pool2/3x3_s2_pool2/3x3_s2_0_split_1
I0424 09:25:39.445833 173392 net.cpp:380] inception_3a/3x3_reduce -> inception_3a/3x3_reduce
I0424 09:25:39.449358 173392 net.cpp:122] Setting up inception_3a/3x3_reduce
I0424 09:25:39.449393 173392 net.cpp:129] Top shape: 10 96 28 28 (752640)
I0424 09:25:39.449414 173392 net.cpp:137] Memory required for data: 211743120
I0424 09:25:39.449455 173392 layer_factory.hpp:77] Creating layer inception_3a/relu_3x3_reduce
I0424 09:25:39.449478 173392 net.cpp:84] Creating Layer inception_3a/relu_3x3_reduce
I0424 09:25:39.449519 173392 net.cpp:406] inception_3a/relu_3x3_reduce <- inception_3a/3x3_reduce
I0424 09:25:39.449573 173392 net.cpp:367] inception_3a/relu_3x3_reduce -> inception_3a/3x3_reduce (in-place)
I0424 09:25:39.449868 173392 net.cpp:122] Setting up inception_3a/relu_3x3_reduce
I0424 09:25:39.449893 173392 net.cpp:129] Top shape: 10 96 28 28 (752640)
I0424 09:25:39.449911 173392 net.cpp:137] Memory required for data: 214753680
I0424 09:25:39.449928 173392 layer_factory.hpp:77] Creating layer inception_3a/3x3
I0424 09:25:39.449965 173392 net.cpp:84] Creating Layer inception_3a/3x3
I0424 09:25:39.449985 173392 net.cpp:406] inception_3a/3x3 <- inception_3a/3x3_reduce
I0424 09:25:39.450006 173392 net.cpp:380] inception_3a/3x3 -> inception_3a/3x3
I0424 09:25:39.452368 173392 net.cpp:122] Setting up inception_3a/3x3
I0424 09:25:39.452399 173392 net.cpp:129] Top shape: 10 128 28 28 (1003520)
I0424 09:25:39.452419 173392 net.cpp:137] Memory required for data: 218767760
I0424 09:25:39.452459 173392 layer_factory.hpp:77] Creating layer inception_3a/relu_3x3
I0424 09:25:39.452481 173392 net.cpp:84] Creating Layer inception_3a/relu_3x3
I0424 09:25:39.452500 173392 net.cpp:406] inception_3a/relu_3x3 <- inception_3a/3x3
I0424 09:25:39.452527 173392 net.cpp:367] inception_3a/relu_3x3 -> inception_3a/3x3 (in-place)
I0424 09:25:39.453171 173392 net.cpp:122] Setting up inception_3a/relu_3x3
I0424 09:25:39.453198 173392 net.cpp:129] Top shape: 10 128 28 28 (1003520)
I0424 09:25:39.453217 173392 net.cpp:137] Memory required for data: 222781840
I0424 09:25:39.453234 173392 layer_factory.hpp:77] Creating layer inception_3a/5x5_reduce
I0424 09:25:39.453269 173392 net.cpp:84] Creating Layer inception_3a/5x5_reduce
I0424 09:25:39.453287 173392 net.cpp:406] inception_3a/5x5_reduce <- pool2/3x3_s2_pool2/3x3_s2_0_split_2
I0424 09:25:39.453315 173392 net.cpp:380] inception_3a/5x5_reduce -> inception_3a/5x5_reduce
I0424 09:25:39.455159 173392 net.cpp:122] Setting up inception_3a/5x5_reduce
I0424 09:25:39.455191 173392 net.cpp:129] Top shape: 10 16 28 28 (125440)
I0424 09:25:39.455209 173392 net.cpp:137] Memory required for data: 223283600
I0424 09:25:39.455233 173392 layer_factory.hpp:77] Creating layer inception_3a/relu_5x5_reduce
I0424 09:25:39.455255 173392 net.cpp:84] Creating Layer inception_3a/relu_5x5_reduce
I0424 09:25:39.455274 173392 net.cpp:406] inception_3a/relu_5x5_reduce <- inception_3a/5x5_reduce
I0424 09:25:39.455299 173392 net.cpp:367] inception_3a/relu_5x5_reduce -> inception_3a/5x5_reduce (in-place)
I0424 09:25:39.455605 173392 net.cpp:122] Setting up inception_3a/relu_5x5_reduce
I0424 09:25:39.455633 173392 net.cpp:129] Top shape: 10 16 28 28 (125440)
I0424 09:25:39.455652 173392 net.cpp:137] Memory required for data: 223785360
I0424 09:25:39.455670 173392 layer_factory.hpp:77] Creating layer inception_3a/5x5
I0424 09:25:39.455703 173392 net.cpp:84] Creating Layer inception_3a/5x5
I0424 09:25:39.455724 173392 net.cpp:406] inception_3a/5x5 <- inception_3a/5x5_reduce
I0424 09:25:39.455751 173392 net.cpp:380] inception_3a/5x5 -> inception_3a/5x5
I0424 09:25:39.458353 173392 net.cpp:122] Setting up inception_3a/5x5
I0424 09:25:39.458384 173392 net.cpp:129] Top shape: 10 32 28 28 (250880)
I0424 09:25:39.458403 173392 net.cpp:137] Memory required for data: 224788880
I0424 09:25:39.458425 173392 layer_factory.hpp:77] Creating layer inception_3a/relu_5x5
I0424 09:25:39.458448 173392 net.cpp:84] Creating Layer inception_3a/relu_5x5
I0424 09:25:39.458467 173392 net.cpp:406] inception_3a/relu_5x5 <- inception_3a/5x5
I0424 09:25:39.458487 173392 net.cpp:367] inception_3a/relu_5x5 -> inception_3a/5x5 (in-place)
I0424 09:25:39.459156 173392 net.cpp:122] Setting up inception_3a/relu_5x5
I0424 09:25:39.459187 173392 net.cpp:129] Top shape: 10 32 28 28 (250880)
I0424 09:25:39.459206 173392 net.cpp:137] Memory required for data: 225792400
I0424 09:25:39.459224 173392 layer_factory.hpp:77] Creating layer inception_3a/pool
I0424 09:25:39.459251 173392 net.cpp:84] Creating Layer inception_3a/pool
I0424 09:25:39.459280 173392 net.cpp:406] inception_3a/pool <- pool2/3x3_s2_pool2/3x3_s2_0_split_3
I0424 09:25:39.459318 173392 net.cpp:380] inception_3a/pool -> inception_3a/pool
I0424 09:25:39.459410 173392 net.cpp:122] Setting up inception_3a/pool
I0424 09:25:39.459434 173392 net.cpp:129] Top shape: 10 192 28 28 (1505280)
I0424 09:25:39.459451 173392 net.cpp:137] Memory required for data: 231813520
I0424 09:25:39.459468 173392 layer_factory.hpp:77] Creating layer inception_3a/pool_proj
I0424 09:25:39.459496 173392 net.cpp:84] Creating Layer inception_3a/pool_proj
I0424 09:25:39.459517 173392 net.cpp:406] inception_3a/pool_proj <- inception_3a/pool
I0424 09:25:39.459563 173392 net.cpp:380] inception_3a/pool_proj -> inception_3a/pool_proj
I0424 09:25:39.461454 173392 net.cpp:122] Setting up inception_3a/pool_proj
I0424 09:25:39.461488 173392 net.cpp:129] Top shape: 10 32 28 28 (250880)
I0424 09:25:39.461506 173392 net.cpp:137] Memory required for data: 232817040
I0424 09:25:39.461542 173392 layer_factory.hpp:77] Creating layer inception_3a/relu_pool_proj
I0424 09:25:39.461575 173392 net.cpp:84] Creating Layer inception_3a/relu_pool_proj
I0424 09:25:39.461596 173392 net.cpp:406] inception_3a/relu_pool_proj <- inception_3a/pool_proj
I0424 09:25:39.461623 173392 net.cpp:367] inception_3a/relu_pool_proj -> inception_3a/pool_proj (in-place)
I0424 09:25:39.462229 173392 net.cpp:122] Setting up inception_3a/relu_pool_proj
I0424 09:25:39.462255 173392 net.cpp:129] Top shape: 10 32 28 28 (250880)
I0424 09:25:39.462273 173392 net.cpp:137] Memory required for data: 233820560
I0424 09:25:39.462291 173392 layer_factory.hpp:77] Creating layer inception_3a/output
I0424 09:25:39.462339 173392 net.cpp:84] Creating Layer inception_3a/output
I0424 09:25:39.462359 173392 net.cpp:406] inception_3a/output <- inception_3a/1x1
I0424 09:25:39.462378 173392 net.cpp:406] inception_3a/output <- inception_3a/3x3
I0424 09:25:39.462397 173392 net.cpp:406] inception_3a/output <- inception_3a/5x5
I0424 09:25:39.462415 173392 net.cpp:406] inception_3a/output <- inception_3a/pool_proj
I0424 09:25:39.462435 173392 net.cpp:380] inception_3a/output -> inception_3a/output
I0424 09:25:39.462499 173392 net.cpp:122] Setting up inception_3a/output
I0424 09:25:39.462522 173392 net.cpp:129] Top shape: 10 256 28 28 (2007040)
I0424 09:25:39.462548 173392 net.cpp:137] Memory required for data: 241848720
I0424 09:25:39.462569 173392 layer_factory.hpp:77] Creating layer inception_3a/output_inception_3a/output_0_split
I0424 09:25:39.462590 173392 net.cpp:84] Creating Layer inception_3a/output_inception_3a/output_0_split
I0424 09:25:39.462608 173392 net.cpp:406] inception_3a/output_inception_3a/output_0_split <- inception_3a/output
I0424 09:25:39.462633 173392 net.cpp:380] inception_3a/output_inception_3a/output_0_split -> inception_3a/output_inception_3a/output_0_split_0
I0424 09:25:39.462656 173392 net.cpp:380] inception_3a/output_inception_3a/output_0_split -> inception_3a/output_inception_3a/output_0_split_1
I0424 09:25:39.462677 173392 net.cpp:380] inception_3a/output_inception_3a/output_0_split -> inception_3a/output_inception_3a/output_0_split_2
I0424 09:25:39.462704 173392 net.cpp:380] inception_3a/output_inception_3a/output_0_split -> inception_3a/output_inception_3a/output_0_split_3
I0424 09:25:39.462790 173392 net.cpp:122] Setting up inception_3a/output_inception_3a/output_0_split
I0424 09:25:39.462826 173392 net.cpp:129] Top shape: 10 256 28 28 (2007040)
I0424 09:25:39.462844 173392 net.cpp:129] Top shape: 10 256 28 28 (2007040)
I0424 09:25:39.462863 173392 net.cpp:129] Top shape: 10 256 28 28 (2007040)
I0424 09:25:39.462880 173392 net.cpp:129] Top shape: 10 256 28 28 (2007040)
I0424 09:25:39.462898 173392 net.cpp:137] Memory required for data: 273961360
I0424 09:25:39.462913 173392 layer_factory.hpp:77] Creating layer inception_3b/1x1
I0424 09:25:39.462945 173392 net.cpp:84] Creating Layer inception_3b/1x1
I0424 09:25:39.462963 173392 net.cpp:406] inception_3b/1x1 <- inception_3a/output_inception_3a/output_0_split_0
I0424 09:25:39.462988 173392 net.cpp:380] inception_3b/1x1 -> inception_3b/1x1
I0424 09:25:39.464937 173392 net.cpp:122] Setting up inception_3b/1x1
I0424 09:25:39.464969 173392 net.cpp:129] Top shape: 10 128 28 28 (1003520)
I0424 09:25:39.464993 173392 net.cpp:137] Memory required for data: 277975440
I0424 09:25:39.465014 173392 layer_factory.hpp:77] Creating layer inception_3b/relu_1x1
I0424 09:25:39.465046 173392 net.cpp:84] Creating Layer inception_3b/relu_1x1
I0424 09:25:39.465066 173392 net.cpp:406] inception_3b/relu_1x1 <- inception_3b/1x1
I0424 09:25:39.465085 173392 net.cpp:367] inception_3b/relu_1x1 -> inception_3b/1x1 (in-place)
I0424 09:25:39.465350 173392 net.cpp:122] Setting up inception_3b/relu_1x1
I0424 09:25:39.465375 173392 net.cpp:129] Top shape: 10 128 28 28 (1003520)
I0424 09:25:39.465392 173392 net.cpp:137] Memory required for data: 281989520
I0424 09:25:39.465409 173392 layer_factory.hpp:77] Creating layer inception_3b/3x3_reduce
I0424 09:25:39.465441 173392 net.cpp:84] Creating Layer inception_3b/3x3_reduce
I0424 09:25:39.465461 173392 net.cpp:406] inception_3b/3x3_reduce <- inception_3a/output_inception_3a/output_0_split_1
I0424 09:25:39.465481 173392 net.cpp:380] inception_3b/3x3_reduce -> inception_3b/3x3_reduce
I0424 09:25:39.467423 173392 net.cpp:122] Setting up inception_3b/3x3_reduce
I0424 09:25:39.467454 173392 net.cpp:129] Top shape: 10 128 28 28 (1003520)
I0424 09:25:39.467473 173392 net.cpp:137] Memory required for data: 286003600
I0424 09:25:39.467494 173392 layer_factory.hpp:77] Creating layer inception_3b/relu_3x3_reduce
I0424 09:25:39.467514 173392 net.cpp:84] Creating Layer inception_3b/relu_3x3_reduce
I0424 09:25:39.467531 173392 net.cpp:406] inception_3b/relu_3x3_reduce <- inception_3b/3x3_reduce
I0424 09:25:39.467586 173392 net.cpp:367] inception_3b/relu_3x3_reduce -> inception_3b/3x3_reduce (in-place)
I0424 09:25:39.468185 173392 net.cpp:122] Setting up inception_3b/relu_3x3_reduce
I0424 09:25:39.468212 173392 net.cpp:129] Top shape: 10 128 28 28 (1003520)
I0424 09:25:39.468230 173392 net.cpp:137] Memory required for data: 290017680
I0424 09:25:39.468246 173392 layer_factory.hpp:77] Creating layer inception_3b/3x3
I0424 09:25:39.468281 173392 net.cpp:84] Creating Layer inception_3b/3x3
I0424 09:25:39.468300 173392 net.cpp:406] inception_3b/3x3 <- inception_3b/3x3_reduce
I0424 09:25:39.468322 173392 net.cpp:380] inception_3b/3x3 -> inception_3b/3x3
I0424 09:25:39.472847 173392 net.cpp:122] Setting up inception_3b/3x3
I0424 09:25:39.472879 173392 net.cpp:129] Top shape: 10 192 28 28 (1505280)
I0424 09:25:39.472898 173392 net.cpp:137] Memory required for data: 296038800
I0424 09:25:39.472920 173392 layer_factory.hpp:77] Creating layer inception_3b/relu_3x3
I0424 09:25:39.472949 173392 net.cpp:84] Creating Layer inception_3b/relu_3x3
I0424 09:25:39.472968 173392 net.cpp:406] inception_3b/relu_3x3 <- inception_3b/3x3
I0424 09:25:39.472988 173392 net.cpp:367] inception_3b/relu_3x3 -> inception_3b/3x3 (in-place)
I0424 09:25:39.473276 173392 net.cpp:122] Setting up inception_3b/relu_3x3
I0424 09:25:39.473306 173392 net.cpp:129] Top shape: 10 192 28 28 (1505280)
I0424 09:25:39.473325 173392 net.cpp:137] Memory required for data: 302059920
I0424 09:25:39.473342 173392 layer_factory.hpp:77] Creating layer inception_3b/5x5_reduce
I0424 09:25:39.473371 173392 net.cpp:84] Creating Layer inception_3b/5x5_reduce
I0424 09:25:39.473390 173392 net.cpp:406] inception_3b/5x5_reduce <- inception_3a/output_inception_3a/output_0_split_2
I0424 09:25:39.473412 173392 net.cpp:380] inception_3b/5x5_reduce -> inception_3b/5x5_reduce
I0424 09:25:39.475276 173392 net.cpp:122] Setting up inception_3b/5x5_reduce
I0424 09:25:39.475307 173392 net.cpp:129] Top shape: 10 32 28 28 (250880)
I0424 09:25:39.475327 173392 net.cpp:137] Memory required for data: 303063440
I0424 09:25:39.475347 173392 layer_factory.hpp:77] Creating layer inception_3b/relu_5x5_reduce
I0424 09:25:39.475373 173392 net.cpp:84] Creating Layer inception_3b/relu_5x5_reduce
I0424 09:25:39.475392 173392 net.cpp:406] inception_3b/relu_5x5_reduce <- inception_3b/5x5_reduce
I0424 09:25:39.475419 173392 net.cpp:367] inception_3b/relu_5x5_reduce -> inception_3b/5x5_reduce (in-place)
I0424 09:25:39.476058 173392 net.cpp:122] Setting up inception_3b/relu_5x5_reduce
I0424 09:25:39.476099 173392 net.cpp:129] Top shape: 10 32 28 28 (250880)
I0424 09:25:39.476117 173392 net.cpp:137] Memory required for data: 304066960
I0424 09:25:39.476135 173392 layer_factory.hpp:77] Creating layer inception_3b/5x5
I0424 09:25:39.476162 173392 net.cpp:84] Creating Layer inception_3b/5x5
I0424 09:25:39.476182 173392 net.cpp:406] inception_3b/5x5 <- inception_3b/5x5_reduce
I0424 09:25:39.476203 173392 net.cpp:380] inception_3b/5x5 -> inception_3b/5x5
I0424 09:25:39.479919 173392 net.cpp:122] Setting up inception_3b/5x5
I0424 09:25:39.479952 173392 net.cpp:129] Top shape: 10 96 28 28 (752640)
I0424 09:25:39.479971 173392 net.cpp:137] Memory required for data: 307077520
I0424 09:25:39.479992 173392 layer_factory.hpp:77] Creating layer inception_3b/relu_5x5
I0424 09:25:39.480013 173392 net.cpp:84] Creating Layer inception_3b/relu_5x5
I0424 09:25:39.480031 173392 net.cpp:406] inception_3b/relu_5x5 <- inception_3b/5x5
I0424 09:25:39.480057 173392 net.cpp:367] inception_3b/relu_5x5 -> inception_3b/5x5 (in-place)
I0424 09:25:39.480691 173392 net.cpp:122] Setting up inception_3b/relu_5x5
I0424 09:25:39.480723 173392 net.cpp:129] Top shape: 10 96 28 28 (752640)
I0424 09:25:39.480742 173392 net.cpp:137] Memory required for data: 310088080
I0424 09:25:39.480760 173392 layer_factory.hpp:77] Creating layer inception_3b/pool
I0424 09:25:39.480787 173392 net.cpp:84] Creating Layer inception_3b/pool
I0424 09:25:39.480808 173392 net.cpp:406] inception_3b/pool <- inception_3a/output_inception_3a/output_0_split_3
I0424 09:25:39.480829 173392 net.cpp:380] inception_3b/pool -> inception_3b/pool
I0424 09:25:39.480903 173392 net.cpp:122] Setting up inception_3b/pool
I0424 09:25:39.480926 173392 net.cpp:129] Top shape: 10 256 28 28 (2007040)
I0424 09:25:39.480958 173392 net.cpp:137] Memory required for data: 318116240
I0424 09:25:39.480975 173392 layer_factory.hpp:77] Creating layer inception_3b/pool_proj
I0424 09:25:39.481003 173392 net.cpp:84] Creating Layer inception_3b/pool_proj
I0424 09:25:39.481022 173392 net.cpp:406] inception_3b/pool_proj <- inception_3b/pool
I0424 09:25:39.481048 173392 net.cpp:380] inception_3b/pool_proj -> inception_3b/pool_proj
I0424 09:25:39.482991 173392 net.cpp:122] Setting up inception_3b/pool_proj
I0424 09:25:39.483021 173392 net.cpp:129] Top shape: 10 64 28 28 (501760)
I0424 09:25:39.483038 173392 net.cpp:137] Memory required for data: 320123280
I0424 09:25:39.483060 173392 layer_factory.hpp:77] Creating layer inception_3b/relu_pool_proj
I0424 09:25:39.483103 173392 net.cpp:84] Creating Layer inception_3b/relu_pool_proj
I0424 09:25:39.483122 173392 net.cpp:406] inception_3b/relu_pool_proj <- inception_3b/pool_proj
I0424 09:25:39.483141 173392 net.cpp:367] inception_3b/relu_pool_proj -> inception_3b/pool_proj (in-place)
I0424 09:25:39.483414 173392 net.cpp:122] Setting up inception_3b/relu_pool_proj
I0424 09:25:39.483449 173392 net.cpp:129] Top shape: 10 64 28 28 (501760)
I0424 09:25:39.483466 173392 net.cpp:137] Memory required for data: 322130320
I0424 09:25:39.483482 173392 layer_factory.hpp:77] Creating layer inception_3b/output
I0424 09:25:39.483501 173392 net.cpp:84] Creating Layer inception_3b/output
I0424 09:25:39.483518 173392 net.cpp:406] inception_3b/output <- inception_3b/1x1
I0424 09:25:39.483541 173392 net.cpp:406] inception_3b/output <- inception_3b/3x3
I0424 09:25:39.483573 173392 net.cpp:406] inception_3b/output <- inception_3b/5x5
I0424 09:25:39.483592 173392 net.cpp:406] inception_3b/output <- inception_3b/pool_proj
I0424 09:25:39.483616 173392 net.cpp:380] inception_3b/output -> inception_3b/output
I0424 09:25:39.483664 173392 net.cpp:122] Setting up inception_3b/output
I0424 09:25:39.483693 173392 net.cpp:129] Top shape: 10 480 28 28 (3763200)
I0424 09:25:39.483711 173392 net.cpp:137] Memory required for data: 337183120
I0424 09:25:39.483728 173392 layer_factory.hpp:77] Creating layer pool3/3x3_s2
I0424 09:25:39.483755 173392 net.cpp:84] Creating Layer pool3/3x3_s2
I0424 09:25:39.483788 173392 net.cpp:406] pool3/3x3_s2 <- inception_3b/output
I0424 09:25:39.483814 173392 net.cpp:380] pool3/3x3_s2 -> pool3/3x3_s2
I0424 09:25:39.483892 173392 net.cpp:122] Setting up pool3/3x3_s2
I0424 09:25:39.483913 173392 net.cpp:129] Top shape: 10 480 14 14 (940800)
I0424 09:25:39.483929 173392 net.cpp:137] Memory required for data: 340946320
I0424 09:25:39.483945 173392 layer_factory.hpp:77] Creating layer pool3/3x3_s2_pool3/3x3_s2_0_split
I0424 09:25:39.483964 173392 net.cpp:84] Creating Layer pool3/3x3_s2_pool3/3x3_s2_0_split
I0424 09:25:39.483981 173392 net.cpp:406] pool3/3x3_s2_pool3/3x3_s2_0_split <- pool3/3x3_s2
I0424 09:25:39.484007 173392 net.cpp:380] pool3/3x3_s2_pool3/3x3_s2_0_split -> pool3/3x3_s2_pool3/3x3_s2_0_split_0
I0424 09:25:39.484027 173392 net.cpp:380] pool3/3x3_s2_pool3/3x3_s2_0_split -> pool3/3x3_s2_pool3/3x3_s2_0_split_1
I0424 09:25:39.484046 173392 net.cpp:380] pool3/3x3_s2_pool3/3x3_s2_0_split -> pool3/3x3_s2_pool3/3x3_s2_0_split_2
I0424 09:25:39.484064 173392 net.cpp:380] pool3/3x3_s2_pool3/3x3_s2_0_split -> pool3/3x3_s2_pool3/3x3_s2_0_split_3
I0424 09:25:39.484154 173392 net.cpp:122] Setting up pool3/3x3_s2_pool3/3x3_s2_0_split
I0424 09:25:39.484195 173392 net.cpp:129] Top shape: 10 480 14 14 (940800)
I0424 09:25:39.484215 173392 net.cpp:129] Top shape: 10 480 14 14 (940800)
I0424 09:25:39.484232 173392 net.cpp:129] Top shape: 10 480 14 14 (940800)
I0424 09:25:39.484249 173392 net.cpp:129] Top shape: 10 480 14 14 (940800)
I0424 09:25:39.484266 173392 net.cpp:137] Memory required for data: 355999120
I0424 09:25:39.484283 173392 layer_factory.hpp:77] Creating layer inception_4a/1x1
I0424 09:25:39.484313 173392 net.cpp:84] Creating Layer inception_4a/1x1
I0424 09:25:39.484333 173392 net.cpp:406] inception_4a/1x1 <- pool3/3x3_s2_pool3/3x3_s2_0_split_0
I0424 09:25:39.484352 173392 net.cpp:380] inception_4a/1x1 -> inception_4a/1x1
I0424 09:25:39.486876 173392 net.cpp:122] Setting up inception_4a/1x1
I0424 09:25:39.486907 173392 net.cpp:129] Top shape: 10 192 14 14 (376320)
I0424 09:25:39.486924 173392 net.cpp:137] Memory required for data: 357504400
I0424 09:25:39.486943 173392 layer_factory.hpp:77] Creating layer inception_4a/relu_1x1
I0424 09:25:39.486963 173392 net.cpp:84] Creating Layer inception_4a/relu_1x1
I0424 09:25:39.486980 173392 net.cpp:406] inception_4a/relu_1x1 <- inception_4a/1x1
I0424 09:25:39.487004 173392 net.cpp:367] inception_4a/relu_1x1 -> inception_4a/1x1 (in-place)
I0424 09:25:39.487607 173392 net.cpp:122] Setting up inception_4a/relu_1x1
I0424 09:25:39.487637 173392 net.cpp:129] Top shape: 10 192 14 14 (376320)
I0424 09:25:39.487655 173392 net.cpp:137] Memory required for data: 359009680
I0424 09:25:39.487673 173392 layer_factory.hpp:77] Creating layer inception_4a/3x3_reduce
I0424 09:25:39.487705 173392 net.cpp:84] Creating Layer inception_4a/3x3_reduce
I0424 09:25:39.487725 173392 net.cpp:406] inception_4a/3x3_reduce <- pool3/3x3_s2_pool3/3x3_s2_0_split_1
I0424 09:25:39.487746 173392 net.cpp:380] inception_4a/3x3_reduce -> inception_4a/3x3_reduce
I0424 09:25:39.489720 173392 net.cpp:122] Setting up inception_4a/3x3_reduce
I0424 09:25:39.489751 173392 net.cpp:129] Top shape: 10 96 14 14 (188160)
I0424 09:25:39.489769 173392 net.cpp:137] Memory required for data: 359762320
I0424 09:25:39.489802 173392 layer_factory.hpp:77] Creating layer inception_4a/relu_3x3_reduce
I0424 09:25:39.489825 173392 net.cpp:84] Creating Layer inception_4a/relu_3x3_reduce
I0424 09:25:39.489842 173392 net.cpp:406] inception_4a/relu_3x3_reduce <- inception_4a/3x3_reduce
I0424 09:25:39.489861 173392 net.cpp:367] inception_4a/relu_3x3_reduce -> inception_4a/3x3_reduce (in-place)
I0424 09:25:39.490144 173392 net.cpp:122] Setting up inception_4a/relu_3x3_reduce
I0424 09:25:39.490171 173392 net.cpp:129] Top shape: 10 96 14 14 (188160)
I0424 09:25:39.490188 173392 net.cpp:137] Memory required for data: 360514960
I0424 09:25:39.490205 173392 layer_factory.hpp:77] Creating layer inception_4a/3x3
I0424 09:25:39.490239 173392 net.cpp:84] Creating Layer inception_4a/3x3
I0424 09:25:39.490272 173392 net.cpp:406] inception_4a/3x3 <- inception_4a/3x3_reduce
I0424 09:25:39.490298 173392 net.cpp:380] inception_4a/3x3 -> inception_4a/3x3
I0424 09:25:39.494921 173392 net.cpp:122] Setting up inception_4a/3x3
I0424 09:25:39.494952 173392 net.cpp:129] Top shape: 10 208 14 14 (407680)
I0424 09:25:39.494971 173392 net.cpp:137] Memory required for data: 362145680
I0424 09:25:39.494989 173392 layer_factory.hpp:77] Creating layer inception_4a/relu_3x3
I0424 09:25:39.495009 173392 net.cpp:84] Creating Layer inception_4a/relu_3x3
I0424 09:25:39.495028 173392 net.cpp:406] inception_4a/relu_3x3 <- inception_4a/3x3
I0424 09:25:39.495050 173392 net.cpp:367] inception_4a/relu_3x3 -> inception_4a/3x3 (in-place)
I0424 09:25:39.495682 173392 net.cpp:122] Setting up inception_4a/relu_3x3
I0424 09:25:39.495712 173392 net.cpp:129] Top shape: 10 208 14 14 (407680)
I0424 09:25:39.495729 173392 net.cpp:137] Memory required for data: 363776400
I0424 09:25:39.495746 173392 layer_factory.hpp:77] Creating layer inception_4a/5x5_reduce
I0424 09:25:39.495781 173392 net.cpp:84] Creating Layer inception_4a/5x5_reduce
I0424 09:25:39.495800 173392 net.cpp:406] inception_4a/5x5_reduce <- pool3/3x3_s2_pool3/3x3_s2_0_split_2
I0424 09:25:39.495821 173392 net.cpp:380] inception_4a/5x5_reduce -> inception_4a/5x5_reduce
I0424 09:25:39.497648 173392 net.cpp:122] Setting up inception_4a/5x5_reduce
I0424 09:25:39.497679 173392 net.cpp:129] Top shape: 10 16 14 14 (31360)
I0424 09:25:39.497697 173392 net.cpp:137] Memory required for data: 363901840
I0424 09:25:39.497717 173392 layer_factory.hpp:77] Creating layer inception_4a/relu_5x5_reduce
I0424 09:25:39.497738 173392 net.cpp:84] Creating Layer inception_4a/relu_5x5_reduce
I0424 09:25:39.497757 173392 net.cpp:406] inception_4a/relu_5x5_reduce <- inception_4a/5x5_reduce
I0424 09:25:39.497781 173392 net.cpp:367] inception_4a/relu_5x5_reduce -> inception_4a/5x5_reduce (in-place)
I0424 09:25:39.498360 173392 net.cpp:122] Setting up inception_4a/relu_5x5_reduce
I0424 09:25:39.498386 173392 net.cpp:129] Top shape: 10 16 14 14 (31360)
I0424 09:25:39.498409 173392 net.cpp:137] Memory required for data: 364027280
I0424 09:25:39.498440 173392 layer_factory.hpp:77] Creating layer inception_4a/5x5
I0424 09:25:39.498467 173392 net.cpp:84] Creating Layer inception_4a/5x5
I0424 09:25:39.498486 173392 net.cpp:406] inception_4a/5x5 <- inception_4a/5x5_reduce
I0424 09:25:39.498512 173392 net.cpp:380] inception_4a/5x5 -> inception_4a/5x5
I0424 09:25:39.500782 173392 net.cpp:122] Setting up inception_4a/5x5
I0424 09:25:39.500813 173392 net.cpp:129] Top shape: 10 48 14 14 (94080)
I0424 09:25:39.500833 173392 net.cpp:137] Memory required for data: 364403600
I0424 09:25:39.500852 173392 layer_factory.hpp:77] Creating layer inception_4a/relu_5x5
I0424 09:25:39.500879 173392 net.cpp:84] Creating Layer inception_4a/relu_5x5
I0424 09:25:39.500897 173392 net.cpp:406] inception_4a/relu_5x5 <- inception_4a/5x5
I0424 09:25:39.500917 173392 net.cpp:367] inception_4a/relu_5x5 -> inception_4a/5x5 (in-place)
I0424 09:25:39.501214 173392 net.cpp:122] Setting up inception_4a/relu_5x5
I0424 09:25:39.501237 173392 net.cpp:129] Top shape: 10 48 14 14 (94080)
I0424 09:25:39.501255 173392 net.cpp:137] Memory required for data: 364779920
I0424 09:25:39.501273 173392 layer_factory.hpp:77] Creating layer inception_4a/pool
I0424 09:25:39.501298 173392 net.cpp:84] Creating Layer inception_4a/pool
I0424 09:25:39.501317 173392 net.cpp:406] inception_4a/pool <- pool3/3x3_s2_pool3/3x3_s2_0_split_3
I0424 09:25:39.501334 173392 net.cpp:380] inception_4a/pool -> inception_4a/pool
I0424 09:25:39.501406 173392 net.cpp:122] Setting up inception_4a/pool
I0424 09:25:39.501428 173392 net.cpp:129] Top shape: 10 480 14 14 (940800)
I0424 09:25:39.501444 173392 net.cpp:137] Memory required for data: 368543120
I0424 09:25:39.501461 173392 layer_factory.hpp:77] Creating layer inception_4a/pool_proj
I0424 09:25:39.501485 173392 net.cpp:84] Creating Layer inception_4a/pool_proj
I0424 09:25:39.501514 173392 net.cpp:406] inception_4a/pool_proj <- inception_4a/pool
I0424 09:25:39.501580 173392 net.cpp:380] inception_4a/pool_proj -> inception_4a/pool_proj
I0424 09:25:39.503518 173392 net.cpp:122] Setting up inception_4a/pool_proj
I0424 09:25:39.503571 173392 net.cpp:129] Top shape: 10 64 14 14 (125440)
I0424 09:25:39.503589 173392 net.cpp:137] Memory required for data: 369044880
I0424 09:25:39.503609 173392 layer_factory.hpp:77] Creating layer inception_4a/relu_pool_proj
I0424 09:25:39.503635 173392 net.cpp:84] Creating Layer inception_4a/relu_pool_proj
I0424 09:25:39.503654 173392 net.cpp:406] inception_4a/relu_pool_proj <- inception_4a/pool_proj
I0424 09:25:39.503674 173392 net.cpp:367] inception_4a/relu_pool_proj -> inception_4a/pool_proj (in-place)
I0424 09:25:39.504297 173392 net.cpp:122] Setting up inception_4a/relu_pool_proj
I0424 09:25:39.504323 173392 net.cpp:129] Top shape: 10 64 14 14 (125440)
I0424 09:25:39.504340 173392 net.cpp:137] Memory required for data: 369546640
I0424 09:25:39.504357 173392 layer_factory.hpp:77] Creating layer inception_4a/output
I0424 09:25:39.504376 173392 net.cpp:84] Creating Layer inception_4a/output
I0424 09:25:39.504393 173392 net.cpp:406] inception_4a/output <- inception_4a/1x1
I0424 09:25:39.504415 173392 net.cpp:406] inception_4a/output <- inception_4a/3x3
I0424 09:25:39.504432 173392 net.cpp:406] inception_4a/output <- inception_4a/5x5
I0424 09:25:39.504449 173392 net.cpp:406] inception_4a/output <- inception_4a/pool_proj
I0424 09:25:39.504472 173392 net.cpp:380] inception_4a/output -> inception_4a/output
I0424 09:25:39.504520 173392 net.cpp:122] Setting up inception_4a/output
I0424 09:25:39.504570 173392 net.cpp:129] Top shape: 10 512 14 14 (1003520)
I0424 09:25:39.504590 173392 net.cpp:137] Memory required for data: 373560720
I0424 09:25:39.504606 173392 layer_factory.hpp:77] Creating layer inception_4a/output_inception_4a/output_0_split
I0424 09:25:39.504629 173392 net.cpp:84] Creating Layer inception_4a/output_inception_4a/output_0_split
I0424 09:25:39.504647 173392 net.cpp:406] inception_4a/output_inception_4a/output_0_split <- inception_4a/output
I0424 09:25:39.504667 173392 net.cpp:380] inception_4a/output_inception_4a/output_0_split -> inception_4a/output_inception_4a/output_0_split_0
I0424 09:25:39.504688 173392 net.cpp:380] inception_4a/output_inception_4a/output_0_split -> inception_4a/output_inception_4a/output_0_split_1
I0424 09:25:39.504709 173392 net.cpp:380] inception_4a/output_inception_4a/output_0_split -> inception_4a/output_inception_4a/output_0_split_2
I0424 09:25:39.504735 173392 net.cpp:380] inception_4a/output_inception_4a/output_0_split -> inception_4a/output_inception_4a/output_0_split_3
I0424 09:25:39.504755 173392 net.cpp:380] inception_4a/output_inception_4a/output_0_split -> inception_4a/output_inception_4a/output_0_split_4
I0424 09:25:39.504871 173392 net.cpp:122] Setting up inception_4a/output_inception_4a/output_0_split
I0424 09:25:39.504892 173392 net.cpp:129] Top shape: 10 512 14 14 (1003520)
I0424 09:25:39.504910 173392 net.cpp:129] Top shape: 10 512 14 14 (1003520)
I0424 09:25:39.504926 173392 net.cpp:129] Top shape: 10 512 14 14 (1003520)
I0424 09:25:39.504954 173392 net.cpp:129] Top shape: 10 512 14 14 (1003520)
I0424 09:25:39.504972 173392 net.cpp:129] Top shape: 10 512 14 14 (1003520)
I0424 09:25:39.504988 173392 net.cpp:137] Memory required for data: 393631120
I0424 09:25:39.505005 173392 layer_factory.hpp:77] Creating layer loss1/ave_pool
I0424 09:25:39.505029 173392 net.cpp:84] Creating Layer loss1/ave_pool
I0424 09:25:39.505048 173392 net.cpp:406] loss1/ave_pool <- inception_4a/output_inception_4a/output_0_split_0
I0424 09:25:39.505066 173392 net.cpp:380] loss1/ave_pool -> loss1/ave_pool
I0424 09:25:39.505383 173392 net.cpp:122] Setting up loss1/ave_pool
I0424 09:25:39.505406 173392 net.cpp:129] Top shape: 10 512 4 4 (81920)
I0424 09:25:39.505422 173392 net.cpp:137] Memory required for data: 393958800
I0424 09:25:39.505439 173392 layer_factory.hpp:77] Creating layer loss1/conv
I0424 09:25:39.505465 173392 net.cpp:84] Creating Layer loss1/conv
I0424 09:25:39.505491 173392 net.cpp:406] loss1/conv <- loss1/ave_pool
I0424 09:25:39.505528 173392 net.cpp:380] loss1/conv -> loss1/conv
I0424 09:25:39.507738 173392 net.cpp:122] Setting up loss1/conv
I0424 09:25:39.507771 173392 net.cpp:129] Top shape: 10 128 4 4 (20480)
I0424 09:25:39.507788 173392 net.cpp:137] Memory required for data: 394040720
I0424 09:25:39.507808 173392 layer_factory.hpp:77] Creating layer loss1/relu_conv
I0424 09:25:39.507848 173392 net.cpp:84] Creating Layer loss1/relu_conv
I0424 09:25:39.507866 173392 net.cpp:406] loss1/relu_conv <- loss1/conv
I0424 09:25:39.507885 173392 net.cpp:367] loss1/relu_conv -> loss1/conv (in-place)
I0424 09:25:39.508512 173392 net.cpp:122] Setting up loss1/relu_conv
I0424 09:25:39.508541 173392 net.cpp:129] Top shape: 10 128 4 4 (20480)
I0424 09:25:39.508563 173392 net.cpp:137] Memory required for data: 394122640
I0424 09:25:39.508581 173392 layer_factory.hpp:77] Creating layer loss1/fc
I0424 09:25:39.508610 173392 net.cpp:84] Creating Layer loss1/fc
I0424 09:25:39.508636 173392 net.cpp:406] loss1/fc <- loss1/conv
I0424 09:25:39.508656 173392 net.cpp:380] loss1/fc -> loss1/fc
I0424 09:25:39.528795 173392 net.cpp:122] Setting up loss1/fc
I0424 09:25:39.528827 173392 net.cpp:129] Top shape: 10 1024 (10240)
I0424 09:25:39.528856 173392 net.cpp:137] Memory required for data: 394163600
I0424 09:25:39.528874 173392 layer_factory.hpp:77] Creating layer loss1/relu_fc
I0424 09:25:39.528894 173392 net.cpp:84] Creating Layer loss1/relu_fc
I0424 09:25:39.528911 173392 net.cpp:406] loss1/relu_fc <- loss1/fc
I0424 09:25:39.528934 173392 net.cpp:367] loss1/relu_fc -> loss1/fc (in-place)
I0424 09:25:39.529558 173392 net.cpp:122] Setting up loss1/relu_fc
I0424 09:25:39.529588 173392 net.cpp:129] Top shape: 10 1024 (10240)
I0424 09:25:39.529606 173392 net.cpp:137] Memory required for data: 394204560
I0424 09:25:39.529623 173392 layer_factory.hpp:77] Creating layer loss1/drop_fc
I0424 09:25:39.529659 173392 net.cpp:84] Creating Layer loss1/drop_fc
I0424 09:25:39.529678 173392 net.cpp:406] loss1/drop_fc <- loss1/fc
I0424 09:25:39.529703 173392 net.cpp:367] loss1/drop_fc -> loss1/fc (in-place)
I0424 09:25:39.529757 173392 net.cpp:122] Setting up loss1/drop_fc
I0424 09:25:39.529785 173392 net.cpp:129] Top shape: 10 1024 (10240)
I0424 09:25:39.529803 173392 net.cpp:137] Memory required for data: 394245520
I0424 09:25:39.529820 173392 layer_factory.hpp:77] Creating layer loss1/classifier
I0424 09:25:39.529858 173392 net.cpp:84] Creating Layer loss1/classifier
I0424 09:25:39.529875 173392 net.cpp:406] loss1/classifier <- loss1/fc
I0424 09:25:39.529898 173392 net.cpp:380] loss1/classifier -> loss1/classifier
I0424 09:25:39.539873 173392 net.cpp:122] Setting up loss1/classifier
I0424 09:25:39.539903 173392 net.cpp:129] Top shape: 10 1000 (10000)
I0424 09:25:39.539921 173392 net.cpp:137] Memory required for data: 394285520
I0424 09:25:39.539939 173392 layer_factory.hpp:77] Creating layer loss1/classifier_loss1/classifier_0_split
I0424 09:25:39.539963 173392 net.cpp:84] Creating Layer loss1/classifier_loss1/classifier_0_split
I0424 09:25:39.539979 173392 net.cpp:406] loss1/classifier_loss1/classifier_0_split <- loss1/classifier
I0424 09:25:39.540004 173392 net.cpp:380] loss1/classifier_loss1/classifier_0_split -> loss1/classifier_loss1/classifier_0_split_0
I0424 09:25:39.540050 173392 net.cpp:380] loss1/classifier_loss1/classifier_0_split -> loss1/classifier_loss1/classifier_0_split_1
I0424 09:25:39.540071 173392 net.cpp:380] loss1/classifier_loss1/classifier_0_split -> loss1/classifier_loss1/classifier_0_split_2
I0424 09:25:39.540150 173392 net.cpp:122] Setting up loss1/classifier_loss1/classifier_0_split
I0424 09:25:39.540174 173392 net.cpp:129] Top shape: 10 1000 (10000)
I0424 09:25:39.540191 173392 net.cpp:129] Top shape: 10 1000 (10000)
I0424 09:25:39.540210 173392 net.cpp:129] Top shape: 10 1000 (10000)
I0424 09:25:39.540225 173392 net.cpp:137] Memory required for data: 394405520
I0424 09:25:39.540242 173392 layer_factory.hpp:77] Creating layer loss1/loss
I0424 09:25:39.540277 173392 net.cpp:84] Creating Layer loss1/loss
I0424 09:25:39.540311 173392 net.cpp:406] loss1/loss <- loss1/classifier_loss1/classifier_0_split_0
I0424 09:25:39.540338 173392 net.cpp:406] loss1/loss <- label_data_1_split_0
…
I0424 09:25:39.541216 173392 net.cpp:122] Setting up loss1/top-5
I0424 09:25:39.541235 173392 net.cpp:129] Top shape: (1)
I0424 09:25:39.541252 173392 net.cpp:137] Memory required for data: 394405532
I0424 09:25:39.541273 173392 layer_factory.hpp:77] Creating layer inception_4b/1x1
I0424 09:25:39.541306 173392 net.cpp:84] Creating Layer inception_4b/1x1
I0424 09:25:39.541324 173392 net.cpp:406] inception_4b/1x1 <- inception_4a/output_inception_4a/output_0_split_1
I0424 09:25:39.541343 173392 net.cpp:380] inception_4b/1x1 -> inception_4b/1x1
I0424 09:25:39.543998 173392 net.cpp:122] Setting up inception_4b/1x1
I0424 09:25:39.544028 173392 net.cpp:129] Top shape: 10 160 14 14 (313600)
I0424 09:25:39.544045 173392 net.cpp:137] Memory required for data: 395659932
I0424 09:25:39.544064 173392 layer_factory.hpp:77] Creating layer inception_4b/relu_1x1
I0424 09:25:39.544087 173392 net.cpp:84] Creating Layer inception_4b/relu_1x1
I0424 09:25:39.544106 173392 net.cpp:406] inception_4b/relu_1x1 <- inception_4b/1x1
I0424 09:25:39.544123 173392 net.cpp:367] inception_4b/relu_1x1 -> inception_4b/1x1 (in-place)
I0424 09:25:39.544759 173392 net.cpp:122] Setting up inception_4b/relu_1x1
I0424 09:25:39.544790 173392 net.cpp:129] Top shape: 10 160 14 14 (313600)
I0424 09:25:39.544807 173392 net.cpp:137] Memory required for data: 396914332
I0424 09:25:39.544826 173392 layer_factory.hpp:77] Creating layer inception_4b/3x3_reduce
I0424 09:25:39.544886 173392 net.cpp:84] Creating Layer inception_4b/3x3_reduce
I0424 09:25:39.544905 173392 net.cpp:406] inception_4b/3x3_reduce <- inception_4a/output_inception_4a/output_0_split_2
I0424 09:25:39.544925 173392 net.cpp:380] inception_4b/3x3_reduce -> inception_4b/3x3_reduce
I0424 09:25:39.548593 173392 net.cpp:122] Setting up inception_4b/3x3_reduce
I0424 09:25:39.548626 173392 net.cpp:129] Top shape: 10 112 14 14 (219520)
I0424 09:25:39.548645 173392 net.cpp:137] Memory required for data: 397792412
I0424 09:25:39.548666 173392 layer_factory.hpp:77] Creating layer inception_4b/relu_3x3_reduce
I0424 09:25:39.548691 173392 net.cpp:84] Creating Layer inception_4b/relu_3x3_reduce
I0424 09:25:39.548708 173392 net.cpp:406] inception_4b/relu_3x3_reduce <- inception_4b/3x3_reduce
I0424 09:25:39.548728 173392 net.cpp:367] inception_4b/relu_3x3_reduce -> inception_4b/3x3_reduce (in-place)
I0424 09:25:39.549038 173392 net.cpp:122] Setting up inception_4b/relu_3x3_reduce
I0424 09:25:39.549063 173392 net.cpp:129] Top shape: 10 112 14 14 (219520)
I0424 09:25:39.549088 173392 net.cpp:137] Memory required for data: 398670492
I0424 09:25:39.549119 173392 layer_factory.hpp:77] Creating layer inception_4b/3x3
I0424 09:25:39.549165 173392 net.cpp:84] Creating Layer inception_4b/3x3
I0424 09:25:39.549183 173392 net.cpp:406] inception_4b/3x3 <- inception_4b/3x3_reduce
I0424 09:25:39.549203 173392 net.cpp:380] inception_4b/3x3 -> inception_4b/3x3
I0424 09:25:39.554019 173392 net.cpp:122] Setting up inception_4b/3x3
I0424 09:25:39.554050 173392 net.cpp:129] Top shape: 10 224 14 14 (439040)
I0424 09:25:39.554069 173392 net.cpp:137] Memory required for data: 400426652
I0424 09:25:39.554087 173392 layer_factory.hpp:77] Creating layer inception_4b/relu_3x3
I0424 09:25:39.554107 173392 net.cpp:84] Creating Layer inception_4b/relu_3x3
I0424 09:25:39.554126 173392 net.cpp:406] inception_4b/relu_3x3 <- inception_4b/3x3
I0424 09:25:39.554144 173392 net.cpp:367] inception_4b/relu_3x3 -> inception_4b/3x3 (in-place)
I0424 09:25:39.554855 173392 net.cpp:122] Setting up inception_4b/relu_3x3
I0424 09:25:39.554884 173392 net.cpp:129] Top shape: 10 224 14 14 (439040)
I0424 09:25:39.554901 173392 net.cpp:137] Memory required for data: 402182812
I0424 09:25:39.554917 173392 layer_factory.hpp:77] Creating layer inception_4b/5x5_reduce
I0424 09:25:39.554939 173392 net.cpp:84] Creating Layer inception_4b/5x5_reduce
I0424 09:25:39.554957 173392 net.cpp:406] inception_4b/5x5_reduce <- inception_4a/output_inception_4a/output_0_split_3
I0424 09:25:39.554977 173392 net.cpp:380] inception_4b/5x5_reduce -> inception_4b/5x5_reduce
I0424 09:25:39.556849 173392 net.cpp:122] Setting up inception_4b/5x5_reduce
I0424 09:25:39.556893 173392 net.cpp:129] Top shape: 10 24 14 14 (47040)
I0424 09:25:39.556911 173392 net.cpp:137] Memory required for data: 402370972
I0424 09:25:39.556931 173392 layer_factory.hpp:77] Creating layer inception_4b/relu_5x5_reduce
I0424 09:25:39.556955 173392 net.cpp:84] Creating Layer inception_4b/relu_5x5_reduce
I0424 09:25:39.556973 173392 net.cpp:406] inception_4b/relu_5x5_reduce <- inception_4b/5x5_reduce
I0424 09:25:39.556998 173392 net.cpp:367] inception_4b/relu_5x5_reduce -> inception_4b/5x5_reduce (in-place)
I0424 09:25:39.557605 173392 net.cpp:122] Setting up inception_4b/relu_5x5_reduce
I0424 09:25:39.557636 173392 net.cpp:129] Top shape: 10 24 14 14 (47040)
I0424 09:25:39.557658 173392 net.cpp:137] Memory required for data: 402559132
I0424 09:25:39.557677 173392 layer_factory.hpp:77] Creating layer inception_4b/5x5
I0424 09:25:39.557698 173392 net.cpp:84] Creating Layer inception_4b/5x5
I0424 09:25:39.557718 173392 net.cpp:406] inception_4b/5x5 <- inception_4b/5x5_reduce
I0424 09:25:39.557744 173392 net.cpp:380] inception_4b/5x5 -> inception_4b/5x5
I0424 09:25:39.559747 173392 net.cpp:122] Setting up inception_4b/5x5
I0424 09:25:39.559779 173392 net.cpp:129] Top shape: 10 64 14 14 (125440)
I0424 09:25:39.559798 173392 net.cpp:137] Memory required for data: 403060892
I0424 09:25:39.559818 173392 layer_factory.hpp:77] Creating layer inception_4b/relu_5x5
I0424 09:25:39.559844 173392 net.cpp:84] Creating Layer inception_4b/relu_5x5
I0424 09:25:39.559862 173392 net.cpp:406] inception_4b/relu_5x5 <- inception_4b/5x5
I0424 09:25:39.559881 173392 net.cpp:367] inception_4b/relu_5x5 -> inception_4b/5x5 (in-place)
I0424 09:25:39.560192 173392 net.cpp:122] Setting up inception_4b/relu_5x5
I0424 09:25:39.560215 173392 net.cpp:129] Top shape: 10 64 14 14 (125440)
I0424 09:25:39.560232 173392 net.cpp:137] Memory required for data: 403562652
I0424 09:25:39.560248 173392 layer_factory.hpp:77] Creating layer inception_4b/pool
I0424 09:25:39.560271 173392 net.cpp:84] Creating Layer inception_4b/pool
I0424 09:25:39.560287 173392 net.cpp:406] inception_4b/pool <- inception_4a/output_inception_4a/output_0_split_4
I0424 09:25:39.560317 173392 net.cpp:380] inception_4b/pool -> inception_4b/pool
I0424 09:25:39.560385 173392 net.cpp:122] Setting up inception_4b/pool
I0424 09:25:39.560411 173392 net.cpp:129] Top shape: 10 512 14 14 (1003520)
I0424 09:25:39.560428 173392 net.cpp:137] Memory required for data: 407576732
I0424 09:25:39.560467 173392 layer_factory.hpp:77] Creating layer inception_4b/pool_proj
I0424 09:25:39.560500 173392 net.cpp:84] Creating Layer inception_4b/pool_proj
I0424 09:25:39.560519 173392 net.cpp:406] inception_4b/pool_proj <- inception_4b/pool
I0424 09:25:39.560559 173392 net.cpp:380] inception_4b/pool_proj -> inception_4b/pool_proj
I0424 09:25:39.562598 173392 net.cpp:122] Setting up inception_4b/pool_proj
I0424 09:25:39.562629 173392 net.cpp:129] Top shape: 10 64 14 14 (125440)
I0424 09:25:39.562649 173392 net.cpp:137] Memory required for data: 408078492
I0424 09:25:39.562669 173392 layer_factory.hpp:77] Creating layer inception_4b/relu_pool_proj
I0424 09:25:39.562688 173392 net.cpp:84] Creating Layer inception_4b/relu_pool_proj
I0424 09:25:39.562707 173392 net.cpp:406] inception_4b/relu_pool_proj <- inception_4b/pool_proj
I0424 09:25:39.562726 173392 net.cpp:367] inception_4b/relu_pool_proj -> inception_4b/pool_proj (in-place)
I0424 09:25:39.563360 173392 net.cpp:122] Setting up inception_4b/relu_pool_proj
I0424 09:25:39.563386 173392 net.cpp:129] Top shape: 10 64 14 14 (125440)
I0424 09:25:39.563405 173392 net.cpp:137] Memory required for data: 408580252
I0424 09:25:39.563421 173392 layer_factory.hpp:77] Creating layer inception_4b/output
I0424 09:25:39.563457 173392 net.cpp:84] Creating Layer inception_4b/output
I0424 09:25:39.563475 173392 net.cpp:406] inception_4b/output <- inception_4b/1x1
I0424 09:25:39.563493 173392 net.cpp:406] inception_4b/output <- inception_4b/3x3
I0424 09:25:39.563511 173392 net.cpp:406] inception_4b/output <- inception_4b/5x5
I0424 09:25:39.563529 173392 net.cpp:406] inception_4b/output <- inception_4b/pool_proj
I0424 09:25:39.563566 173392 net.cpp:380] inception_4b/output -> inception_4b/output
I0424 09:25:39.563622 173392 net.cpp:122] Setting up inception_4b/output
I0424 09:25:39.563645 173392 net.cpp:129] Top shape: 10 512 14 14 (1003520)
I0424 09:25:39.563661 173392 net.cpp:137] Memory required for data: 412594332
I0424 09:25:39.563678 173392 layer_factory.hpp:77] Creating layer inception_4b/output_inception_4b/output_0_split
I0424 09:25:39.563699 173392 net.cpp:84] Creating Layer inception_4b/output_inception_4b/output_0_split
I0424 09:25:39.563716 173392 net.cpp:406] inception_4b/output_inception_4b/output_0_split <- inception_4b/output
I0424 09:25:39.563740 173392 net.cpp:380] inception_4b/output_inception_4b/output_0_split -> inception_4b/output_inception_4b/output_0_split_0
I0424 09:25:39.563761 173392 net.cpp:380] inception_4b/output_inception_4b/output_0_split -> inception_4b/output_inception_4b/output_0_split_1
I0424 09:25:39.563781 173392 net.cpp:380] inception_4b/output_inception_4b/output_0_split -> inception_4b/output_inception_4b/output_0_split_2
I0424 09:25:39.563802 173392 net.cpp:380] inception_4b/output_inception_4b/output_0_split -> inception_4b/output_inception_4b/output_0_split_3
I0424 09:25:39.563917 173392 net.cpp:122] Setting up inception_4b/output_inception_4b/output_0_split
I0424 09:25:39.563938 173392 net.cpp:129] Top shape: 10 512 14 14 (1003520)
I0424 09:25:39.563956 173392 net.cpp:129] Top shape: 10 512 14 14 (1003520)
I0424 09:25:39.563972 173392 net.cpp:129] Top shape: 10 512 14 14 (1003520)
I0424 09:25:39.563988 173392 net.cpp:129] Top shape: 10 512 14 14 (1003520)
I0424 09:25:39.564004 173392 net.cpp:137] Memory required for data: 428650652
I0424 09:25:39.564023 173392 layer_factory.hpp:77] Creating layer inception_4c/1x1
I0424 09:25:39.564055 173392 net.cpp:84] Creating Layer inception_4c/1x1
I0424 09:25:39.564074 173392 net.cpp:406] inception_4c/1x1 <- inception_4b/output_inception_4b/output_0_split_0
I0424 09:25:39.564092 173392 net.cpp:380] inception_4c/1x1 -> inception_4c/1x1
I0424 09:25:39.566232 173392 net.cpp:122] Setting up inception_4c/1x1
I0424 09:25:39.566263 173392 net.cpp:129] Top shape: 10 128 14 14 (250880)
I0424 09:25:39.566280 173392 net.cpp:137] Memory required for data: 429654172
I0424 09:25:39.566299 173392 layer_factory.hpp:77] Creating layer inception_4c/relu_1x1
I0424 09:25:39.566332 173392 net.cpp:84] Creating Layer inception_4c/relu_1x1
I0424 09:25:39.566364 173392 net.cpp:406] inception_4c/relu_1x1 <- inception_4c/1x1
I0424 09:25:39.566387 173392 net.cpp:367] inception_4c/relu_1x1 -> inception_4c/1x1 (in-place)
I0424 09:25:39.566694 173392 net.cpp:122] Setting up inception_4c/relu_1x1
I0424 09:25:39.566721 173392 net.cpp:129] Top shape: 10 128 14 14 (250880)
I0424 09:25:39.566740 173392 net.cpp:137] Memory required for data: 430657692
I0424 09:25:39.566757 173392 layer_factory.hpp:77] Creating layer inception_4c/3x3_reduce
I0424 09:25:39.566787 173392 net.cpp:84] Creating Layer inception_4c/3x3_reduce
I0424 09:25:39.566807 173392 net.cpp:406] inception_4c/3x3_reduce <- inception_4b/output_inception_4b/output_0_split_1
I0424 09:25:39.566845 173392 net.cpp:380] inception_4c/3x3_reduce -> inception_4c/3x3_reduce
I0424 09:25:39.568974 173392 net.cpp:122] Setting up inception_4c/3x3_reduce
I0424 09:25:39.569005 173392 net.cpp:129] Top shape: 10 128 14 14 (250880)
I0424 09:25:39.569021 173392 net.cpp:137] Memory required for data: 431661212
I0424 09:25:39.569041 173392 layer_factory.hpp:77] Creating layer inception_4c/relu_3x3_reduce
I0424 09:25:39.569064 173392 net.cpp:84] Creating Layer inception_4c/relu_3x3_reduce
I0424 09:25:39.569082 173392 net.cpp:406] inception_4c/relu_3x3_reduce <- inception_4c/3x3_reduce
I0424 09:25:39.569106 173392 net.cpp:367] inception_4c/relu_3x3_reduce -> inception_4c/3x3_reduce (in-place)
I0424 09:25:39.569730 173392 net.cpp:122] Setting up inception_4c/relu_3x3_reduce
I0424 09:25:39.569761 173392 net.cpp:129] Top shape: 10 128 14 14 (250880)
I0424 09:25:39.569779 173392 net.cpp:137] Memory required for data: 432664732
I0424 09:25:39.569797 173392 layer_factory.hpp:77] Creating layer inception_4c/3x3
I0424 09:25:39.569834 173392 net.cpp:84] Creating Layer inception_4c/3x3
I0424 09:25:39.569854 173392 net.cpp:406] inception_4c/3x3 <- inception_4c/3x3_reduce
I0424 09:25:39.569877 173392 net.cpp:380] inception_4c/3x3 -> inception_4c/3x3
I0424 09:25:39.575199 173392 net.cpp:122] Setting up inception_4c/3x3
I0424 09:25:39.575232 173392 net.cpp:129] Top shape: 10 256 14 14 (501760)
I0424 09:25:39.575250 173392 net.cpp:137] Memory required for data: 434671772
I0424 09:25:39.575291 173392 layer_factory.hpp:77] Creating layer inception_4c/relu_3x3
I0424 09:25:39.575314 173392 net.cpp:84] Creating Layer inception_4c/relu_3x3
I0424 09:25:39.575332 173392 net.cpp:406] inception_4c/relu_3x3 <- inception_4c/3x3
I0424 09:25:39.575356 173392 net.cpp:367] inception_4c/relu_3x3 -> inception_4c/3x3 (in-place)
I0424 09:25:39.575984 173392 net.cpp:122] Setting up inception_4c/relu_3x3
I0424 09:25:39.576014 173392 net.cpp:129] Top shape: 10 256 14 14 (501760)
I0424 09:25:39.576030 173392 net.cpp:137] Memory required for data: 436678812
I0424 09:25:39.576047 173392 layer_factory.hpp:77] Creating layer inception_4c/5x5_reduce
I0424 09:25:39.576077 173392 net.cpp:84] Creating Layer inception_4c/5x5_reduce
I0424 09:25:39.576097 173392 net.cpp:406] inception_4c/5x5_reduce <- inception_4b/output_inception_4b/output_0_split_2
I0424 09:25:39.576117 173392 net.cpp:380] inception_4c/5x5_reduce -> inception_4c/5x5_reduce
I0424 09:25:39.578097 173392 net.cpp:122] Setting up inception_4c/5x5_reduce
I0424 09:25:39.578127 173392 net.cpp:129] Top shape: 10 24 14 14 (47040)
I0424 09:25:39.578145 173392 net.cpp:137] Memory required for data: 436866972
I0424 09:25:39.578164 173392 layer_factory.hpp:77] Creating layer inception_4c/relu_5x5_reduce
I0424 09:25:39.578189 173392 net.cpp:84] Creating Layer inception_4c/relu_5x5_reduce
I0424 09:25:39.578207 173392 net.cpp:406] inception_4c/relu_5x5_reduce <- inception_4c/5x5_reduce
I0424 09:25:39.578232 173392 net.cpp:367] inception_4c/relu_5x5_reduce -> inception_4c/5x5_reduce (in-place)
I0424 09:25:39.578527 173392 net.cpp:122] Setting up inception_4c/relu_5x5_reduce
I0424 09:25:39.578564 173392 net.cpp:129] Top shape: 10 24 14 14 (47040)
I0424 09:25:39.578583 173392 net.cpp:137] Memory required for data: 437055132
I0424 09:25:39.578599 173392 layer_factory.hpp:77] Creating layer inception_4c/5x5
I0424 09:25:39.578652 173392 net.cpp:84] Creating Layer inception_4c/5x5
I0424 09:25:39.578672 173392 net.cpp:406] inception_4c/5x5 <- inception_4c/5x5_reduce
I0424 09:25:39.578699 173392 net.cpp:380] inception_4c/5x5 -> inception_4c/5x5
I0424 09:25:39.582168 173392 net.cpp:122] Setting up inception_4c/5x5
I0424 09:25:39.582199 173392 net.cpp:129] Top shape: 10 64 14 14 (125440)
I0424 09:25:39.582217 173392 net.cpp:137] Memory required for data: 437556892
I0424 09:25:39.582237 173392 layer_factory.hpp:77] Creating layer inception_4c/relu_5x5
I0424 09:25:39.582262 173392 net.cpp:84] Creating Layer inception_4c/relu_5x5
I0424 09:25:39.582279 173392 net.cpp:406] inception_4c/relu_5x5 <- inception_4c/5x5
I0424 09:25:39.582298 173392 net.cpp:367] inception_4c/relu_5x5 -> inception_4c/5x5 (in-place)
I0424 09:25:39.582947 173392 net.cpp:122] Setting up inception_4c/relu_5x5
I0424 09:25:39.582978 173392 net.cpp:129] Top shape: 10 64 14 14 (125440)
I0424 09:25:39.582995 173392 net.cpp:137] Memory required for data: 438058652
I0424 09:25:39.583014 173392 layer_factory.hpp:77] Creating layer inception_4c/pool
I0424 09:25:39.583036 173392 net.cpp:84] Creating Layer inception_4c/pool
I0424 09:25:39.583055 173392 net.cpp:406] inception_4c/pool <- inception_4b/output_inception_4b/output_0_split_3
I0424 09:25:39.583075 173392 net.cpp:380] inception_4c/pool -> inception_4c/pool
I0424 09:25:39.583161 173392 net.cpp:122] Setting up inception_4c/pool
I0424 09:25:39.583183 173392 net.cpp:129] Top shape: 10 512 14 14 (1003520)
I0424 09:25:39.583199 173392 net.cpp:137] Memory required for data: 442072732
I0424 09:25:39.583217 173392 layer_factory.hpp:77] Creating layer inception_4c/pool_proj
I0424 09:25:39.583238 173392 net.cpp:84] Creating Layer inception_4c/pool_proj
I0424 09:25:39.583256 173392 net.cpp:406] inception_4c/pool_proj <- inception_4c/pool
I0424 09:25:39.583276 173392 net.cpp:380] inception_4c/pool_proj -> inception_4c/pool_proj
I0424 09:25:39.585335 173392 net.cpp:122] Setting up inception_4c/pool_proj
I0424 09:25:39.585366 173392 net.cpp:129] Top shape: 10 64 14 14 (125440)
I0424 09:25:39.585383 173392 net.cpp:137] Memory required for data: 442574492
I0424 09:25:39.585403 173392 layer_factory.hpp:77] Creating layer inception_4c/relu_pool_proj
I0424 09:25:39.585427 173392 net.cpp:84] Creating Layer inception_4c/relu_pool_proj
I0424 09:25:39.585446 173392 net.cpp:406] inception_4c/relu_pool_proj <- inception_4c/pool_proj
I0424 09:25:39.585464 173392 net.cpp:367] inception_4c/relu_pool_proj -> inception_4c/pool_proj (in-place)
I0424 09:25:39.585774 173392 net.cpp:122] Setting up inception_4c/relu_pool_proj
I0424 09:25:39.585803 173392 net.cpp:129] Top shape: 10 64 14 14 (125440)
I0424 09:25:39.585819 173392 net.cpp:137] Memory required for data: 443076252
I0424 09:25:39.585849 173392 layer_factory.hpp:77] Creating layer inception_4c/output
I0424 09:25:39.585870 173392 net.cpp:84] Creating Layer inception_4c/output
I0424 09:25:39.585886 173392 net.cpp:406] inception_4c/output <- inception_4c/1x1
I0424 09:25:39.585911 173392 net.cpp:406] inception_4c/output <- inception_4c/3x3
I0424 09:25:39.585928 173392 net.cpp:406] inception_4c/output <- inception_4c/5x5
I0424 09:25:39.585947 173392 net.cpp:406] inception_4c/output <- inception_4c/pool_proj
I0424 09:25:39.585964 173392 net.cpp:380] inception_4c/output -> inception_4c/output
I0424 09:25:39.586020 173392 net.cpp:122] Setting up inception_4c/output
I0424 09:25:39.586041 173392 net.cpp:129] Top shape: 10 512 14 14 (1003520)
I0424 09:25:39.586068 173392 net.cpp:137] Memory required for data: 447090332
I0424 09:25:39.586086 173392 layer_factory.hpp:77] Creating layer inception_4c/output_inception_4c/output_0_split
I0424 09:25:39.586107 173392 net.cpp:84] Creating Layer inception_4c/output_inception_4c/output_0_split
I0424 09:25:39.586125 173392 net.cpp:406] inception_4c/output_inception_4c/output_0_split <- inception_4c/output
I0424 09:25:39.586144 173392 net.cpp:380] inception_4c/output_inception_4c/output_0_split -> inception_4c/output_inception_4c/output_0_split_0
I0424 09:25:39.586179 173392 net.cpp:380] inception_4c/output_inception_4c/output_0_split -> inception_4c/output_inception_4c/output_0_split_1
I0424 09:25:39.586223 173392 net.cpp:380] inception_4c/output_inception_4c/output_0_split -> inception_4c/output_inception_4c/output_0_split_2
I0424 09:25:39.586246 173392 net.cpp:380] inception_4c/output_inception_4c/output_0_split -> inception_4c/output_inception_4c/output_0_split_3
I0424 09:25:39.586346 173392 net.cpp:122] Setting up inception_4c/output_inception_4c/output_0_split
I0424 09:25:39.586369 173392 net.cpp:129] Top shape: 10 512 14 14 (1003520)
I0424 09:25:39.586387 173392 net.cpp:129] Top shape: 10 512 14 14 (1003520)
I0424 09:25:39.586405 173392 net.cpp:129] Top shape: 10 512 14 14 (1003520)
I0424 09:25:39.586432 173392 net.cpp:129] Top shape: 10 512 14 14 (1003520)
I0424 09:25:39.586448 173392 net.cpp:137] Memory required for data: 463146652
I0424 09:25:39.586464 173392 layer_factory.hpp:77] Creating layer inception_4d/1x1
I0424 09:25:39.586494 173392 net.cpp:84] Creating Layer inception_4d/1x1
I0424 09:25:39.586513 173392 net.cpp:406] inception_4d/1x1 <- inception_4c/output_inception_4c/output_0_split_0
I0424 09:25:39.586531 173392 net.cpp:380] inception_4d/1x1 -> inception_4d/1x1
I0424 09:25:39.588692 173392 net.cpp:122] Setting up inception_4d/1x1
I0424 09:25:39.588723 173392 net.cpp:129] Top shape: 10 112 14 14 (219520)
I0424 09:25:39.588742 173392 net.cpp:137] Memory required for data: 464024732
I0424 09:25:39.588762 173392 layer_factory.hpp:77] Creating layer inception_4d/relu_1x1
I0424 09:25:39.588788 173392 net.cpp:84] Creating Layer inception_4d/relu_1x1
I0424 09:25:39.588821 173392 net.cpp:406] inception_4d/relu_1x1 <- inception_4d/1x1
I0424 09:25:39.588845 173392 net.cpp:367] inception_4d/relu_1x1 -> inception_4d/1x1 (in-place)
I0424 09:25:39.589459 173392 net.cpp:122] Setting up inception_4d/relu_1x1
I0424 09:25:39.589486 173392 net.cpp:129] Top shape: 10 112 14 14 (219520)
I0424 09:25:39.589504 173392 net.cpp:137] Memory required for data: 464902812
I0424 09:25:39.589521 173392 layer_factory.hpp:77] Creating layer inception_4d/3x3_reduce
I0424 09:25:39.589562 173392 net.cpp:84] Creating Layer inception_4d/3x3_reduce
I0424 09:25:39.589582 173392 net.cpp:406] inception_4d/3x3_reduce <- inception_4c/output_inception_4c/output_0_split_1
I0424 09:25:39.589608 173392 net.cpp:380] inception_4d/3x3_reduce -> inception_4d/3x3_reduce
I0424 09:25:39.591850 173392 net.cpp:122] Setting up inception_4d/3x3_reduce
I0424 09:25:39.591899 173392 net.cpp:129] Top shape: 10 144 14 14 (282240)
I0424 09:25:39.591918 173392 net.cpp:137] Memory required for data: 466031772
I0424 09:25:39.591938 173392 layer_factory.hpp:77] Creating layer inception_4d/relu_3x3_reduce
I0424 09:25:39.591960 173392 net.cpp:84] Creating Layer inception_4d/relu_3x3_reduce
I0424 09:25:39.591979 173392 net.cpp:406] inception_4d/relu_3x3_reduce <- inception_4d/3x3_reduce
I0424 09:25:39.591997 173392 net.cpp:367] inception_4d/relu_3x3_reduce -> inception_4d/3x3_reduce (in-place)
I0424 09:25:39.592631 173392 net.cpp:122] Setting up inception_4d/relu_3x3_reduce
I0424 09:25:39.592661 173392 net.cpp:129] Top shape: 10 144 14 14 (282240)
I0424 09:25:39.592680 173392 net.cpp:137] Memory required for data: 467160732
I0424 09:25:39.592697 173392 layer_factory.hpp:77] Creating layer inception_4d/3x3
I0424 09:25:39.592725 173392 net.cpp:84] Creating Layer inception_4d/3x3
I0424 09:25:39.592746 173392 net.cpp:406] inception_4d/3x3 <- inception_4d/3x3_reduce
I0424 09:25:39.592772 173392 net.cpp:380] inception_4d/3x3 -> inception_4d/3x3
I0424 09:25:39.598567 173392 net.cpp:122] Setting up inception_4d/3x3
I0424 09:25:39.598599 173392 net.cpp:129] Top shape: 10 288 14 14 (564480)
I0424 09:25:39.598618 173392 net.cpp:137] Memory required for data: 469418652
I0424 09:25:39.598639 173392 layer_factory.hpp:77] Creating layer inception_4d/relu_3x3
I0424 09:25:39.598668 173392 net.cpp:84] Creating Layer inception_4d/relu_3x3
I0424 09:25:39.598688 173392 net.cpp:406] inception_4d/relu_3x3 <- inception_4d/3x3
I0424 09:25:39.598716 173392 net.cpp:367] inception_4d/relu_3x3 -> inception_4d/3x3 (in-place)
I0424 09:25:39.599030 173392 net.cpp:122] Setting up inception_4d/relu_3x3
I0424 09:25:39.599059 173392 net.cpp:129] Top shape: 10 288 14 14 (564480)
I0424 09:25:39.599076 173392 net.cpp:137] Memory required for data: 471676572
I0424 09:25:39.599092 173392 layer_factory.hpp:77] Creating layer inception_4d/5x5_reduce
I0424 09:25:39.599118 173392 net.cpp:84] Creating Layer inception_4d/5x5_reduce
I0424 09:25:39.599138 173392 net.cpp:406] inception_4d/5x5_reduce <- inception_4c/output_inception_4c/output_0_split_2
I0424 09:25:39.599179 173392 net.cpp:380] inception_4d/5x5_reduce -> inception_4d/5x5_reduce
I0424 09:25:39.601187 173392 net.cpp:122] Setting up inception_4d/5x5_reduce
I0424 09:25:39.601224 173392 net.cpp:129] Top shape: 10 32 14 14 (62720)
I0424 09:25:39.601243 173392 net.cpp:137] Memory required for data: 471927452
I0424 09:25:39.601263 173392 layer_factory.hpp:77] Creating layer inception_4d/relu_5x5_reduce
I0424 09:25:39.601284 173392 net.cpp:84] Creating Layer inception_4d/relu_5x5_reduce
I0424 09:25:39.601302 173392 net.cpp:406] inception_4d/relu_5x5_reduce <- inception_4d/5x5_reduce
I0424 09:25:39.601321 173392 net.cpp:367] inception_4d/relu_5x5_reduce -> inception_4d/5x5_reduce (in-place)
I0424 09:25:39.601989 173392 net.cpp:122] Setting up inception_4d/relu_5x5_reduce
I0424 09:25:39.602018 173392 net.cpp:129] Top shape: 10 32 14 14 (62720)
I0424 09:25:39.602036 173392 net.cpp:137] Memory required for data: 472178332
I0424 09:25:39.602052 173392 layer_factory.hpp:77] Creating layer inception_4d/5x5
I0424 09:25:39.602080 173392 net.cpp:84] Creating Layer inception_4d/5x5
I0424 09:25:39.602099 173392 net.cpp:406] inception_4d/5x5 <- inception_4d/5x5_reduce
I0424 09:25:39.602123 173392 net.cpp:380] inception_4d/5x5 -> inception_4d/5x5
I0424 09:25:39.604588 173392 net.cpp:122] Setting up inception_4d/5x5
I0424 09:25:39.604619 173392 net.cpp:129] Top shape: 10 64 14 14 (125440)
I0424 09:25:39.604637 173392 net.cpp:137] Memory required for data: 472680092
I0424 09:25:39.604660 173392 layer_factory.hpp:77] Creating layer inception_4d/relu_5x5
I0424 09:25:39.604693 173392 net.cpp:84] Creating Layer inception_4d/relu_5x5
I0424 09:25:39.604713 173392 net.cpp:406] inception_4d/relu_5x5 <- inception_4d/5x5
I0424 09:25:39.604732 173392 net.cpp:367] inception_4d/relu_5x5 -> inception_4d/5x5 (in-place)
I0424 09:25:39.605046 173392 net.cpp:122] Setting up inception_4d/relu_5x5
I0424 09:25:39.605068 173392 net.cpp:129] Top shape: 10 64 14 14 (125440)
I0424 09:25:39.605085 173392 net.cpp:137] Memory required for data: 473181852
I0424 09:25:39.605101 173392 layer_factory.hpp:77] Creating layer inception_4d/pool
I0424 09:25:39.605124 173392 net.cpp:84] Creating Layer inception_4d/pool
I0424 09:25:39.605142 173392 net.cpp:406] inception_4d/pool <- inception_4c/output_inception_4c/output_0_split_3
I0424 09:25:39.605161 173392 net.cpp:380] inception_4d/pool -> inception_4d/pool
I0424 09:25:39.605237 173392 net.cpp:122] Setting up inception_4d/pool
I0424 09:25:39.605259 173392 net.cpp:129] Top shape: 10 512 14 14 (1003520)
I0424 09:25:39.605275 173392 net.cpp:137] Memory required for data: 477195932
I0424 09:25:39.605293 173392 layer_factory.hpp:77] Creating layer inception_4d/pool_proj
I0424 09:25:39.605322 173392 net.cpp:84] Creating Layer inception_4d/pool_proj
I0424 09:25:39.605340 173392 net.cpp:406] inception_4d/pool_proj <- inception_4d/pool
I0424 09:25:39.605360 173392 net.cpp:380] inception_4d/pool_proj -> inception_4d/pool_proj
I0424 09:25:39.607401 173392 net.cpp:122] Setting up inception_4d/pool_proj
I0424 09:25:39.607431 173392 net.cpp:129] Top shape: 10 64 14 14 (125440)
I0424 09:25:39.607450 173392 net.cpp:137] Memory required for data: 477697692
I0424 09:25:39.607468 173392 layer_factory.hpp:77] Creating layer inception_4d/relu_pool_proj
I0424 09:25:39.607491 173392 net.cpp:84] Creating Layer inception_4d/relu_pool_proj
I0424 09:25:39.607517 173392 net.cpp:406] inception_4d/relu_pool_proj <- inception_4d/pool_proj
I0424 09:25:39.607563 173392 net.cpp:367] inception_4d/relu_pool_proj -> inception_4d/pool_proj (in-place)
I0424 09:25:39.608242 173392 net.cpp:122] Setting up inception_4d/relu_pool_proj
I0424 09:25:39.608299 173392 net.cpp:129] Top shape: 10 64 14 14 (125440)
I0424 09:25:39.608316 173392 net.cpp:137] Memory required for data: 478199452
I0424 09:25:39.608333 173392 layer_factory.hpp:77] Creating layer inception_4d/output
I0424 09:25:39.608352 173392 net.cpp:84] Creating Layer inception_4d/output
I0424 09:25:39.608371 173392 net.cpp:406] inception_4d/output <- inception_4d/1x1
I0424 09:25:39.608389 173392 net.cpp:406] inception_4d/output <- inception_4d/3x3
I0424 09:25:39.608407 173392 net.cpp:406] inception_4d/output <- inception_4d/5x5
I0424 09:25:39.608424 173392 net.cpp:406] inception_4d/output <- inception_4d/pool_proj
I0424 09:25:39.608443 173392 net.cpp:380] inception_4d/output -> inception_4d/output
I0424 09:25:39.608499 173392 net.cpp:122] Setting up inception_4d/output
I0424 09:25:39.608520 173392 net.cpp:129] Top shape: 10 528 14 14 (1034880)
I0424 09:25:39.608557 173392 net.cpp:137] Memory required for data: 482338972
I0424 09:25:39.608578 173392 layer_factory.hpp:77] Creating layer inception_4d/output_inception_4d/output_0_split
I0424 09:25:39.608604 173392 net.cpp:84] Creating Layer inception_4d/output_inception_4d/output_0_split
I0424 09:25:39.608623 173392 net.cpp:406] inception_4d/output_inception_4d/output_0_split <- inception_4d/output
I0424 09:25:39.608641 173392 net.cpp:380] inception_4d/output_inception_4d/output_0_split -> inception_4d/output_inception_4d/output_0_split_0
I0424 09:25:39.608662 173392 net.cpp:380] inception_4d/output_inception_4d/output_0_split -> inception_4d/output_inception_4d/output_0_split_1
I0424 09:25:39.608683 173392 net.cpp:380] inception_4d/output_inception_4d/output_0_split -> inception_4d/output_inception_4d/output_0_split_2
I0424 09:25:39.608702 173392 net.cpp:380] inception_4d/output_inception_4d/output_0_split -> inception_4d/output_inception_4d/output_0_split_3
I0424 09:25:39.608722 173392 net.cpp:380] inception_4d/output_inception_4d/output_0_split -> inception_4d/output_inception_4d/output_0_split_4
I0424 09:25:39.608857 173392 net.cpp:122] Setting up inception_4d/output_inception_4d/output_0_split
I0424 09:25:39.608878 173392 net.cpp:129] Top shape: 10 528 14 14 (1034880)
I0424 09:25:39.608896 173392 net.cpp:129] Top shape: 10 528 14 14 (1034880)
I0424 09:25:39.608912 173392 net.cpp:129] Top shape: 10 528 14 14 (1034880)
I0424 09:25:39.608929 173392 net.cpp:129] Top shape: 10 528 14 14 (1034880)
I0424 09:25:39.608947 173392 net.cpp:129] Top shape: 10 528 14 14 (1034880)
I0424 09:25:39.608963 173392 net.cpp:137] Memory required for data: 503036572
I0424 09:25:39.608981 173392 layer_factory.hpp:77] Creating layer loss2/ave_pool
I0424 09:25:39.609000 173392 net.cpp:84] Creating Layer loss2/ave_pool
I0424 09:25:39.609030 173392 net.cpp:406] loss2/ave_pool <- inception_4d/output_inception_4d/output_0_split_0
I0424 09:25:39.609053 173392 net.cpp:380] loss2/ave_pool -> loss2/ave_pool
I0424 09:25:39.609712 173392 net.cpp:122] Setting up loss2/ave_pool
I0424 09:25:39.609743 173392 net.cpp:129] Top shape: 10 528 4 4 (84480)
I0424 09:25:39.609761 173392 net.cpp:137] Memory required for data: 503374492
I0424 09:25:39.609778 173392 layer_factory.hpp:77] Creating layer loss2/conv
I0424 09:25:39.609810 173392 net.cpp:84] Creating Layer loss2/conv
I0424 09:25:39.609843 173392 net.cpp:406] loss2/conv <- loss2/ave_pool
I0424 09:25:39.609863 173392 net.cpp:380] loss2/conv -> loss2/conv
I0424 09:25:39.613579 173392 net.cpp:122] Setting up loss2/conv
I0424 09:25:39.613610 173392 net.cpp:129] Top shape: 10 128 4 4 (20480)
I0424 09:25:39.613629 173392 net.cpp:137] Memory required for data: 503456412
I0424 09:25:39.613651 173392 layer_factory.hpp:77] Creating layer loss2/relu_conv
I0424 09:25:39.613673 173392 net.cpp:84] Creating Layer loss2/relu_conv
I0424 09:25:39.613692 173392 net.cpp:406] loss2/relu_conv <- loss2/conv
I0424 09:25:39.613713 173392 net.cpp:367] loss2/relu_conv -> loss2/conv (in-place)
I0424 09:25:39.614022 173392 net.cpp:122] Setting up loss2/relu_conv
I0424 09:25:39.614065 173392 net.cpp:129] Top shape: 10 128 4 4 (20480)
I0424 09:25:39.614094 173392 net.cpp:137] Memory required for data: 503538332
I0424 09:25:39.614111 173392 layer_factory.hpp:77] Creating layer loss2/fc
I0424 09:25:39.614131 173392 net.cpp:84] Creating Layer loss2/fc
I0424 09:25:39.614150 173392 net.cpp:406] loss2/fc <- loss2/conv
I0424 09:25:39.614172 173392 net.cpp:380] loss2/fc -> loss2/fc
I0424 09:25:39.634374 173392 net.cpp:122] Setting up loss2/fc
I0424 09:25:39.634411 173392 net.cpp:129] Top shape: 10 1024 (10240)
I0424 09:25:39.634430 173392 net.cpp:137] Memory required for data: 503579292
I0424 09:25:39.634454 173392 layer_factory.hpp:77] Creating layer loss2/relu_fc
I0424 09:25:39.634474 173392 net.cpp:84] Creating Layer loss2/relu_fc
I0424 09:25:39.634493 173392 net.cpp:406] loss2/relu_fc <- loss2/fc
I0424 09:25:39.634512 173392 net.cpp:367] loss2/relu_fc -> loss2/fc (in-place)
I0424 09:25:39.635151 173392 net.cpp:122] Setting up loss2/relu_fc
I0424 09:25:39.635180 173392 net.cpp:129] Top shape: 10 1024 (10240)
I0424 09:25:39.635197 173392 net.cpp:137] Memory required for data: 503620252
I0424 09:25:39.635215 173392 layer_factory.hpp:77] Creating layer loss2/drop_fc
I0424 09:25:39.635236 173392 net.cpp:84] Creating Layer loss2/drop_fc
I0424 09:25:39.635254 173392 net.cpp:406] loss2/drop_fc <- loss2/fc
I0424 09:25:39.635277 173392 net.cpp:367] loss2/drop_fc -> loss2/fc (in-place)
I0424 09:25:39.635329 173392 net.cpp:122] Setting up loss2/drop_fc
I0424 09:25:39.635354 173392 net.cpp:129] Top shape: 10 1024 (10240)
I0424 09:25:39.635387 173392 net.cpp:137] Memory required for data: 503661212
I0424 09:25:39.635404 173392 layer_factory.hpp:77] Creating layer loss2/classifier
I0424 09:25:39.635426 173392 net.cpp:84] Creating Layer loss2/classifier
I0424 09:25:39.635442 173392 net.cpp:406] loss2/classifier <- loss2/fc
I0424 09:25:39.635468 173392 net.cpp:380] loss2/classifier -> loss2/classifier
I0424 09:25:39.645455 173392 net.cpp:122] Setting up loss2/classifier
I0424 09:25:39.645486 173392 net.cpp:129] Top shape: 10 1000 (10000)
I0424 09:25:39.645504 173392 net.cpp:137] Memory required for data: 503701212
I0424 09:25:39.645524 173392 layer_factory.hpp:77] Creating layer loss2/classifier_loss2/classifier_0_split
I0424 09:25:39.645555 173392 net.cpp:84] Creating Layer loss2/classifier_loss2/classifier_0_split
I0424 09:25:39.645575 173392 net.cpp:406] loss2/classifier_loss2/classifier_0_split <- loss2/classifier
I0424 09:25:39.645601 173392 net.cpp:380] loss2/classifier_loss2/classifier_0_split -> loss2/classifier_loss2/classifier_0_split_0
I0424 09:25:39.645623 173392 net.cpp:380] loss2/classifier_loss2/classifier_0_split -> loss2/classifier_loss2/classifier_0_split_1
I0424 09:25:39.645644 173392 net.cpp:380] loss2/classifier_loss2/classifier_0_split -> loss2/classifier_loss2/classifier_0_split_2
I0424 09:25:39.645732 173392 net.cpp:122] Setting up loss2/classifier_loss2/classifier_0_split
I0424 09:25:39.645756 173392 net.cpp:129] Top shape: 10 1000 (10000)
I0424 09:25:39.645773 173392 net.cpp:129] Top shape: 10 1000 (10000)
I0424 09:25:39.645790 173392 net.cpp:129] Top shape: 10 1000 (10000)
I0424 09:25:39.645822 173392 net.cpp:137] Memory required for data: 503821212
I0424 09:25:39.645838 173392 layer_factory.hpp:77] Creating layer loss2/loss
I0424 09:25:39.645860 173392 net.cpp:84] Creating Layer loss2/loss
I0424 09:25:39.645879 173392 net.cpp:406] loss2/loss <- loss2/classifier_loss2/classifier_0_split_0
I0424 09:25:39.645896 173392 net.cpp:406] loss2/loss <- label_data_1_split_3
…
I0424 09:25:39.646737 173392 net.cpp:122] Setting up loss2/top-5
I0424 09:25:39.646755 173392 net.cpp:129] Top shape: (1)
I0424 09:25:39.646772 173392 net.cpp:137] Memory required for data: 503821224
I0424 09:25:39.646791 173392 layer_factory.hpp:77] Creating layer inception_4e/1x1
I0424 09:25:39.646836 173392 net.cpp:84] Creating Layer inception_4e/1x1
I0424 09:25:39.646854 173392 net.cpp:406] inception_4e/1x1 <- inception_4d/output_inception_4d/output_0_split_1
I0424 09:25:39.646878 173392 net.cpp:380] inception_4e/1x1 -> inception_4e/1x1
I0424 09:25:39.649422 173392 net.cpp:122] Setting up inception_4e/1x1
I0424 09:25:39.649453 173392 net.cpp:129] Top shape: 10 256 14 14 (501760)
I0424 09:25:39.649471 173392 net.cpp:137] Memory required for data: 505828264
I0424 09:25:39.649489 173392 layer_factory.hpp:77] Creating layer inception_4e/relu_1x1
I0424 09:25:39.649513 173392 net.cpp:84] Creating Layer inception_4e/relu_1x1
I0424 09:25:39.649530 173392 net.cpp:406] inception_4e/relu_1x1 <- inception_4e/1x1
I0424 09:25:39.649580 173392 net.cpp:367] inception_4e/relu_1x1 -> inception_4e/1x1 (in-place)
I0424 09:25:39.650213 173392 net.cpp:122] Setting up inception_4e/relu_1x1
I0424 09:25:39.650238 173392 net.cpp:129] Top shape: 10 256 14 14 (501760)
I0424 09:25:39.650255 173392 net.cpp:137] Memory required for data: 507835304
I0424 09:25:39.650271 173392 layer_factory.hpp:77] Creating layer inception_4e/3x3_reduce
I0424 09:25:39.650323 173392 net.cpp:84] Creating Layer inception_4e/3x3_reduce
I0424 09:25:39.650343 173392 net.cpp:406] inception_4e/3x3_reduce <- inception_4d/output_inception_4d/output_0_split_2
I0424 09:25:39.650363 173392 net.cpp:380] inception_4e/3x3_reduce -> inception_4e/3x3_reduce
I0424 09:25:39.654171 173392 net.cpp:122] Setting up inception_4e/3x3_reduce
I0424 09:25:39.654217 173392 net.cpp:129] Top shape: 10 160 14 14 (313600)
I0424 09:25:39.654235 173392 net.cpp:137] Memory required for data: 509089704
I0424 09:25:39.654255 173392 layer_factory.hpp:77] Creating layer inception_4e/relu_3x3_reduce
I0424 09:25:39.654275 173392 net.cpp:84] Creating Layer inception_4e/relu_3x3_reduce
I0424 09:25:39.654292 173392 net.cpp:406] inception_4e/relu_3x3_reduce <- inception_4e/3x3_reduce
I0424 09:25:39.654311 173392 net.cpp:367] inception_4e/relu_3x3_reduce -> inception_4e/3x3_reduce (in-place)
I0424 09:25:39.654960 173392 net.cpp:122] Setting up inception_4e/relu_3x3_reduce
I0424 09:25:39.655000 173392 net.cpp:129] Top shape: 10 160 14 14 (313600)
I0424 09:25:39.655019 173392 net.cpp:137] Memory required for data: 510344104
I0424 09:25:39.655040 173392 layer_factory.hpp:77] Creating layer inception_4e/3x3
I0424 09:25:39.655071 173392 net.cpp:84] Creating Layer inception_4e/3x3
I0424 09:25:39.655097 173392 net.cpp:406] inception_4e/3x3 <- inception_4e/3x3_reduce
I0424 09:25:39.655117 173392 net.cpp:380] inception_4e/3x3 -> inception_4e/3x3
I0424 09:25:39.665760 173392 net.cpp:122] Setting up inception_4e/3x3
I0424 09:25:39.665807 173392 net.cpp:129] Top shape: 10 320 14 14 (627200)
I0424 09:25:39.665827 173392 net.cpp:137] Memory required for data: 512852904
I0424 09:25:39.665899 173392 layer_factory.hpp:77] Creating layer inception_4e/relu_3x3
I0424 09:25:39.665952 173392 net.cpp:84] Creating Layer inception_4e/relu_3x3
I0424 09:25:39.665989 173392 net.cpp:406] inception_4e/relu_3x3 <- inception_4e/3x3
I0424 09:25:39.666014 173392 net.cpp:367] inception_4e/relu_3x3 -> inception_4e/3x3 (in-place)
I0424 09:25:39.666399 173392 net.cpp:122] Setting up inception_4e/relu_3x3
I0424 09:25:39.666427 173392 net.cpp:129] Top shape: 10 320 14 14 (627200)
I0424 09:25:39.666445 173392 net.cpp:137] Memory required for data: 515361704
I0424 09:25:39.666461 173392 layer_factory.hpp:77] Creating layer inception_4e/5x5_reduce
I0424 09:25:39.666487 173392 net.cpp:84] Creating Layer inception_4e/5x5_reduce
I0424 09:25:39.666505 173392 net.cpp:406] inception_4e/5x5_reduce <- inception_4d/output_inception_4d/output_0_split_3
I0424 09:25:39.666525 173392 net.cpp:380] inception_4e/5x5_reduce -> inception_4e/5x5_reduce
I0424 09:25:39.668853 173392 net.cpp:122] Setting up inception_4e/5x5_reduce
I0424 09:25:39.668884 173392 net.cpp:129] Top shape: 10 32 14 14 (62720)
I0424 09:25:39.668901 173392 net.cpp:137] Memory required for data: 515612584
I0424 09:25:39.668920 173392 layer_factory.hpp:77] Creating layer inception_4e/relu_5x5_reduce
I0424 09:25:39.668949 173392 net.cpp:84] Creating Layer inception_4e/relu_5x5_reduce
I0424 09:25:39.668968 173392 net.cpp:406] inception_4e/relu_5x5_reduce <- inception_4e/5x5_reduce
I0424 09:25:39.668987 173392 net.cpp:367] inception_4e/relu_5x5_reduce -> inception_4e/5x5_reduce (in-place)
I0424 09:25:39.669636 173392 net.cpp:122] Setting up inception_4e/relu_5x5_reduce
I0424 09:25:39.669667 173392 net.cpp:129] Top shape: 10 32 14 14 (62720)
I0424 09:25:39.669684 173392 net.cpp:137] Memory required for data: 515863464
I0424 09:25:39.669704 173392 layer_factory.hpp:77] Creating layer inception_4e/5x5
I0424 09:25:39.669734 173392 net.cpp:84] Creating Layer inception_4e/5x5
I0424 09:25:39.669752 173392 net.cpp:406] inception_4e/5x5 <- inception_4e/5x5_reduce
I0424 09:25:39.669780 173392 net.cpp:380] inception_4e/5x5 -> inception_4e/5x5
I0424 09:25:39.672196 173392 net.cpp:122] Setting up inception_4e/5x5
I0424 09:25:39.672227 173392 net.cpp:129] Top shape: 10 128 14 14 (250880)
I0424 09:25:39.672245 173392 net.cpp:137] Memory required for data: 516866984
I0424 09:25:39.672264 173392 layer_factory.hpp:77] Creating layer inception_4e/relu_5x5
I0424 09:25:39.672286 173392 net.cpp:84] Creating Layer inception_4e/relu_5x5
I0424 09:25:39.672304 173392 net.cpp:406] inception_4e/relu_5x5 <- inception_4e/5x5
I0424 09:25:39.672323 173392 net.cpp:367] inception_4e/relu_5x5 -> inception_4e/5x5 (in-place)
I0424 09:25:39.673012 173392 net.cpp:122] Setting up inception_4e/relu_5x5
I0424 09:25:39.673043 173392 net.cpp:129] Top shape: 10 128 14 14 (250880)
I0424 09:25:39.673059 173392 net.cpp:137] Memory required for data: 517870504
I0424 09:25:39.673076 173392 layer_factory.hpp:77] Creating layer inception_4e/pool
I0424 09:25:39.673100 173392 net.cpp:84] Creating Layer inception_4e/pool
I0424 09:25:39.673118 173392 net.cpp:406] inception_4e/pool <- inception_4d/output_inception_4d/output_0_split_4
I0424 09:25:39.673137 173392 net.cpp:380] inception_4e/pool -> inception_4e/pool
I0424 09:25:39.673214 173392 net.cpp:122] Setting up inception_4e/pool
I0424 09:25:39.673236 173392 net.cpp:129] Top shape: 10 528 14 14 (1034880)
I0424 09:25:39.673252 173392 net.cpp:137] Memory required for data: 522010024
I0424 09:25:39.673269 173392 layer_factory.hpp:77] Creating layer inception_4e/pool_proj
I0424 09:25:39.673297 173392 net.cpp:84] Creating Layer inception_4e/pool_proj
I0424 09:25:39.673316 173392 net.cpp:406] inception_4e/pool_proj <- inception_4e/pool
I0424 09:25:39.673336 173392 net.cpp:380] inception_4e/pool_proj -> inception_4e/pool_proj
I0424 09:25:39.675709 173392 net.cpp:122] Setting up inception_4e/pool_proj
I0424 09:25:39.675740 173392 net.cpp:129] Top shape: 10 128 14 14 (250880)
I0424 09:25:39.675758 173392 net.cpp:137] Memory required for data: 523013544
I0424 09:25:39.675786 173392 layer_factory.hpp:77] Creating layer inception_4e/relu_pool_proj
I0424 09:25:39.675824 173392 net.cpp:84] Creating Layer inception_4e/relu_pool_proj
I0424 09:25:39.675849 173392 net.cpp:406] inception_4e/relu_pool_proj <- inception_4e/pool_proj
I0424 09:25:39.675869 173392 net.cpp:367] inception_4e/relu_pool_proj -> inception_4e/pool_proj (in-place)
I0424 09:25:39.676514 173392 net.cpp:122] Setting up inception_4e/relu_pool_proj
I0424 09:25:39.676558 173392 net.cpp:129] Top shape: 10 128 14 14 (250880)
I0424 09:25:39.676580 173392 net.cpp:137] Memory required for data: 524017064
I0424 09:25:39.676599 173392 layer_factory.hpp:77] Creating layer inception_4e/output
I0424 09:25:39.676623 173392 net.cpp:84] Creating Layer inception_4e/output
I0424 09:25:39.676642 173392 net.cpp:406] inception_4e/output <- inception_4e/1x1
I0424 09:25:39.676661 173392 net.cpp:406] inception_4e/output <- inception_4e/3x3
I0424 09:25:39.676692 173392 net.cpp:406] inception_4e/output <- inception_4e/5x5
I0424 09:25:39.676712 173392 net.cpp:406] inception_4e/output <- inception_4e/pool_proj
I0424 09:25:39.676730 173392 net.cpp:380] inception_4e/output -> inception_4e/output
I0424 09:25:39.676791 173392 net.cpp:122] Setting up inception_4e/output
I0424 09:25:39.676815 173392 net.cpp:129] Top shape: 10 832 14 14 (1630720)
I0424 09:25:39.676831 173392 net.cpp:137] Memory required for data: 530539944
I0424 09:25:39.676847 173392 layer_factory.hpp:77] Creating layer pool4/3x3_s2
I0424 09:25:39.676867 173392 net.cpp:84] Creating Layer pool4/3x3_s2
I0424 09:25:39.676885 173392 net.cpp:406] pool4/3x3_s2 <- inception_4e/output
I0424 09:25:39.676918 173392 net.cpp:380] pool4/3x3_s2 -> pool4/3x3_s2
I0424 09:25:39.677007 173392 net.cpp:122] Setting up pool4/3x3_s2
I0424 09:25:39.677031 173392 net.cpp:129] Top shape: 10 832 7 7 (407680)
I0424 09:25:39.677047 173392 net.cpp:137] Memory required for data: 532170664
I0424 09:25:39.677067 173392 layer_factory.hpp:77] Creating layer pool4/3x3_s2_pool4/3x3_s2_0_split
I0424 09:25:39.677093 173392 net.cpp:84] Creating Layer pool4/3x3_s2_pool4/3x3_s2_0_split
I0424 09:25:39.677112 173392 net.cpp:406] pool4/3x3_s2_pool4/3x3_s2_0_split <- pool4/3x3_s2
I0424 09:25:39.677131 173392 net.cpp:380] pool4/3x3_s2_pool4/3x3_s2_0_split -> pool4/3x3_s2_pool4/3x3_s2_0_split_0
I0424 09:25:39.677155 173392 net.cpp:380] pool4/3x3_s2_pool4/3x3_s2_0_split -> pool4/3x3_s2_pool4/3x3_s2_0_split_1
I0424 09:25:39.677176 173392 net.cpp:380] pool4/3x3_s2_pool4/3x3_s2_0_split -> pool4/3x3_s2_pool4/3x3_s2_0_split_2
I0424 09:25:39.677428 173392 net.cpp:380] pool4/3x3_s2_pool4/3x3_s2_0_split -> pool4/3x3_s2_pool4/3x3_s2_0_split_3
I0424 09:25:39.677528 173392 net.cpp:122] Setting up pool4/3x3_s2_pool4/3x3_s2_0_split
I0424 09:25:39.677579 173392 net.cpp:129] Top shape: 10 832 7 7 (407680)
I0424 09:25:39.677599 173392 net.cpp:129] Top shape: 10 832 7 7 (407680)
I0424 09:25:39.677618 173392 net.cpp:129] Top shape: 10 832 7 7 (407680)
I0424 09:25:39.677635 173392 net.cpp:129] Top shape: 10 832 7 7 (407680)
I0424 09:25:39.677652 173392 net.cpp:137] Memory required for data: 538693544
I0424 09:25:39.677695 173392 layer_factory.hpp:77] Creating layer inception_5a/1x1
I0424 09:25:39.677727 173392 net.cpp:84] Creating Layer inception_5a/1x1
I0424 09:25:39.677747 173392 net.cpp:406] inception_5a/1x1 <- pool4/3x3_s2_pool4/3x3_s2_0_split_0
I0424 09:25:39.677772 173392 net.cpp:380] inception_5a/1x1 -> inception_5a/1x1
I0424 09:25:39.682260 173392 net.cpp:122] Setting up inception_5a/1x1
I0424 09:25:39.682291 173392 net.cpp:129] Top shape: 10 256 7 7 (125440)
I0424 09:25:39.682308 173392 net.cpp:137] Memory required for data: 539195304
I0424 09:25:39.682328 173392 layer_factory.hpp:77] Creating layer inception_5a/relu_1x1
I0424 09:25:39.682368 173392 net.cpp:84] Creating Layer inception_5a/relu_1x1
I0424 09:25:39.682389 173392 net.cpp:406] inception_5a/relu_1x1 <- inception_5a/1x1
I0424 09:25:39.682409 173392 net.cpp:367] inception_5a/relu_1x1 -> inception_5a/1x1 (in-place)
I0424 09:25:39.683068 173392 net.cpp:122] Setting up inception_5a/relu_1x1
I0424 09:25:39.683102 173392 net.cpp:129] Top shape: 10 256 7 7 (125440)
I0424 09:25:39.683132 173392 net.cpp:137] Memory required for data: 539697064
I0424 09:25:39.683154 173392 layer_factory.hpp:77] Creating layer inception_5a/3x3_reduce
I0424 09:25:39.683182 173392 net.cpp:84] Creating Layer inception_5a/3x3_reduce
I0424 09:25:39.683200 173392 net.cpp:406] inception_5a/3x3_reduce <- pool4/3x3_s2_pool4/3x3_s2_0_split_1
I0424 09:25:39.683225 173392 net.cpp:380] inception_5a/3x3_reduce -> inception_5a/3x3_reduce
I0424 09:25:39.687279 173392 net.cpp:122] Setting up inception_5a/3x3_reduce
I0424 09:25:39.687310 173392 net.cpp:129] Top shape: 10 160 7 7 (78400)
I0424 09:25:39.687328 173392 net.cpp:137] Memory required for data: 540010664
I0424 09:25:39.687350 173392 layer_factory.hpp:77] Creating layer inception_5a/relu_3x3_reduce
I0424 09:25:39.687378 173392 net.cpp:84] Creating Layer inception_5a/relu_3x3_reduce
I0424 09:25:39.687397 173392 net.cpp:406] inception_5a/relu_3x3_reduce <- inception_5a/3x3_reduce
I0424 09:25:39.687418 173392 net.cpp:367] inception_5a/relu_3x3_reduce -> inception_5a/3x3_reduce (in-place)
I0424 09:25:39.687739 173392 net.cpp:122] Setting up inception_5a/relu_3x3_reduce
I0424 09:25:39.687767 173392 net.cpp:129] Top shape: 10 160 7 7 (78400)
I0424 09:25:39.687785 173392 net.cpp:137] Memory required for data: 540324264
I0424 09:25:39.687803 173392 layer_factory.hpp:77] Creating layer inception_5a/3x3
I0424 09:25:39.687830 173392 net.cpp:84] Creating Layer inception_5a/3x3
I0424 09:25:39.687850 173392 net.cpp:406] inception_5a/3x3 <- inception_5a/3x3_reduce
I0424 09:25:39.687878 173392 net.cpp:380] inception_5a/3x3 -> inception_5a/3x3
I0424 09:25:39.694974 173392 net.cpp:122] Setting up inception_5a/3x3
I0424 09:25:39.695005 173392 net.cpp:129] Top shape: 10 320 7 7 (156800)
I0424 09:25:39.695024 173392 net.cpp:137] Memory required for data: 540951464
I0424 09:25:39.695044 173392 layer_factory.hpp:77] Creating layer inception_5a/relu_3x3
I0424 09:25:39.695068 173392 net.cpp:84] Creating Layer inception_5a/relu_3x3
I0424 09:25:39.695086 173392 net.cpp:406] inception_5a/relu_3x3 <- inception_5a/3x3
I0424 09:25:39.695106 173392 net.cpp:367] inception_5a/relu_3x3 -> inception_5a/3x3 (in-place)
I0424 09:25:39.695762 173392 net.cpp:122] Setting up inception_5a/relu_3x3
I0424 09:25:39.695793 173392 net.cpp:129] Top shape: 10 320 7 7 (156800)
I0424 09:25:39.695811 173392 net.cpp:137] Memory required for data: 541578664
I0424 09:25:39.695828 173392 layer_factory.hpp:77] Creating layer inception_5a/5x5_reduce
I0424 09:25:39.695870 173392 net.cpp:84] Creating Layer inception_5a/5x5_reduce
I0424 09:25:39.695889 173392 net.cpp:406] inception_5a/5x5_reduce <- pool4/3x3_s2_pool4/3x3_s2_0_split_2
I0424 09:25:39.695916 173392 net.cpp:380] inception_5a/5x5_reduce -> inception_5a/5x5_reduce
I0424 09:25:39.698117 173392 net.cpp:122] Setting up inception_5a/5x5_reduce
I0424 09:25:39.698148 173392 net.cpp:129] Top shape: 10 32 7 7 (15680)
I0424 09:25:39.698165 173392 net.cpp:137] Memory required for data: 541641384
I0424 09:25:39.698187 173392 layer_factory.hpp:77] Creating layer inception_5a/relu_5x5_reduce
I0424 09:25:39.698212 173392 net.cpp:84] Creating Layer inception_5a/relu_5x5_reduce
I0424 09:25:39.698231 173392 net.cpp:406] inception_5a/relu_5x5_reduce <- inception_5a/5x5_reduce
I0424 09:25:39.698251 173392 net.cpp:367] inception_5a/relu_5x5_reduce -> inception_5a/5x5_reduce (in-place)
I0424 09:25:39.698568 173392 net.cpp:122] Setting up inception_5a/relu_5x5_reduce
I0424 09:25:39.698596 173392 net.cpp:129] Top shape: 10 32 7 7 (15680)
I0424 09:25:39.698614 173392 net.cpp:137] Memory required for data: 541704104
I0424 09:25:39.698632 173392 layer_factory.hpp:77] Creating layer inception_5a/5x5
I0424 09:25:39.698660 173392 net.cpp:84] Creating Layer inception_5a/5x5
I0424 09:25:39.698680 173392 net.cpp:406] inception_5a/5x5 <- inception_5a/5x5_reduce
I0424 09:25:39.698705 173392 net.cpp:380] inception_5a/5x5 -> inception_5a/5x5
I0424 09:25:39.701158 173392 net.cpp:122] Setting up inception_5a/5x5
I0424 09:25:39.701203 173392 net.cpp:129] Top shape: 10 128 7 7 (62720)
I0424 09:25:39.701238 173392 net.cpp:137] Memory required for data: 541954984
I0424 09:25:39.701258 173392 layer_factory.hpp:77] Creating layer inception_5a/relu_5x5
I0424 09:25:39.701292 173392 net.cpp:84] Creating Layer inception_5a/relu_5x5
I0424 09:25:39.701313 173392 net.cpp:406] inception_5a/relu_5x5 <- inception_5a/5x5
I0424 09:25:39.701330 173392 net.cpp:367] inception_5a/relu_5x5 -> inception_5a/5x5 (in-place)
I0424 09:25:39.702008 173392 net.cpp:122] Setting up inception_5a/relu_5x5
I0424 09:25:39.702039 173392 net.cpp:129] Top shape: 10 128 7 7 (62720)
I0424 09:25:39.702057 173392 net.cpp:137] Memory required for data: 542205864
I0424 09:25:39.702077 173392 layer_factory.hpp:77] Creating layer inception_5a/pool
I0424 09:25:39.702103 173392 net.cpp:84] Creating Layer inception_5a/pool
I0424 09:25:39.702122 173392 net.cpp:406] inception_5a/pool <- pool4/3x3_s2_pool4/3x3_s2_0_split_3
I0424 09:25:39.702142 173392 net.cpp:380] inception_5a/pool -> inception_5a/pool
I0424 09:25:39.702227 173392 net.cpp:122] Setting up inception_5a/pool
I0424 09:25:39.702250 173392 net.cpp:129] Top shape: 10 832 7 7 (407680)
I0424 09:25:39.702266 173392 net.cpp:137] Memory required for data: 543836584
I0424 09:25:39.702283 173392 layer_factory.hpp:77] Creating layer inception_5a/pool_proj
I0424 09:25:39.702320 173392 net.cpp:84] Creating Layer inception_5a/pool_proj
I0424 09:25:39.702339 173392 net.cpp:406] inception_5a/pool_proj <- inception_5a/pool
I0424 09:25:39.702363 173392 net.cpp:380] inception_5a/pool_proj -> inception_5a/pool_proj
I0424 09:25:39.706351 173392 net.cpp:122] Setting up inception_5a/pool_proj
I0424 09:25:39.706396 173392 net.cpp:129] Top shape: 10 128 7 7 (62720)
I0424 09:25:39.706415 173392 net.cpp:137] Memory required for data: 544087464
I0424 09:25:39.706435 173392 layer_factory.hpp:77] Creating layer inception_5a/relu_pool_proj
I0424 09:25:39.706467 173392 net.cpp:84] Creating Layer inception_5a/relu_pool_proj
I0424 09:25:39.706487 173392 net.cpp:406] inception_5a/relu_pool_proj <- inception_5a/pool_proj
I0424 09:25:39.706507 173392 net.cpp:367] inception_5a/relu_pool_proj -> inception_5a/pool_proj (in-place)
I0424 09:25:39.707167 173392 net.cpp:122] Setting up inception_5a/relu_pool_proj
I0424 09:25:39.707196 173392 net.cpp:129] Top shape: 10 128 7 7 (62720)
I0424 09:25:39.707213 173392 net.cpp:137] Memory required for data: 544338344
I0424 09:25:39.707231 173392 layer_factory.hpp:77] Creating layer inception_5a/output
I0424 09:25:39.707248 173392 net.cpp:84] Creating Layer inception_5a/output
I0424 09:25:39.707267 173392 net.cpp:406] inception_5a/output <- inception_5a/1x1
I0424 09:25:39.707284 173392 net.cpp:406] inception_5a/output <- inception_5a/3x3
I0424 09:25:39.707303 173392 net.cpp:406] inception_5a/output <- inception_5a/5x5
I0424 09:25:39.707319 173392 net.cpp:406] inception_5a/output <- inception_5a/pool_proj
I0424 09:25:39.707337 173392 net.cpp:380] inception_5a/output -> inception_5a/output
I0424 09:25:39.707396 173392 net.cpp:122] Setting up inception_5a/output
I0424 09:25:39.707418 173392 net.cpp:129] Top shape: 10 832 7 7 (407680)
I0424 09:25:39.707434 173392 net.cpp:137] Memory required for data: 545969064
I0424 09:25:39.707453 173392 layer_factory.hpp:77] Creating layer inception_5a/output_inception_5a/output_0_split
I0424 09:25:39.707478 173392 net.cpp:84] Creating Layer inception_5a/output_inception_5a/output_0_split
I0424 09:25:39.707511 173392 net.cpp:406] inception_5a/output_inception_5a/output_0_split <- inception_5a/output
I0424 09:25:39.707530 173392 net.cpp:380] inception_5a/output_inception_5a/output_0_split -> inception_5a/output_inception_5a/output_0_split_0
I0424 09:25:39.707561 173392 net.cpp:380] inception_5a/output_inception_5a/output_0_split -> inception_5a/output_inception_5a/output_0_split_1
I0424 09:25:39.707581 173392 net.cpp:380] inception_5a/output_inception_5a/output_0_split -> inception_5a/output_inception_5a/output_0_split_2
I0424 09:25:39.707602 173392 net.cpp:380] inception_5a/output_inception_5a/output_0_split -> inception_5a/output_inception_5a/output_0_split_3
I0424 09:25:39.707738 173392 net.cpp:122] Setting up inception_5a/output_inception_5a/output_0_split
I0424 09:25:39.707767 173392 net.cpp:129] Top shape: 10 832 7 7 (407680)
I0424 09:25:39.707785 173392 net.cpp:129] Top shape: 10 832 7 7 (407680)
I0424 09:25:39.707803 173392 net.cpp:129] Top shape: 10 832 7 7 (407680)
I0424 09:25:39.707820 173392 net.cpp:129] Top shape: 10 832 7 7 (407680)
I0424 09:25:39.707837 173392 net.cpp:137] Memory required for data: 552491944
I0424 09:25:39.707864 173392 layer_factory.hpp:77] Creating layer inception_5b/1x1
I0424 09:25:39.707890 173392 net.cpp:84] Creating Layer inception_5b/1x1
I0424 09:25:39.707908 173392 net.cpp:406] inception_5b/1x1 <- inception_5a/output_inception_5a/output_0_split_0
I0424 09:25:39.707932 173392 net.cpp:380] inception_5b/1x1 -> inception_5b/1x1
I0424 09:25:39.713143 173392 net.cpp:122] Setting up inception_5b/1x1
I0424 09:25:39.713189 173392 net.cpp:129] Top shape: 10 384 7 7 (188160)
I0424 09:25:39.713207 173392 net.cpp:137] Memory required for data: 553244584
I0424 09:25:39.713227 173392 layer_factory.hpp:77] Creating layer inception_5b/relu_1x1
I0424 09:25:39.713256 173392 net.cpp:84] Creating Layer inception_5b/relu_1x1
I0424 09:25:39.713275 173392 net.cpp:406] inception_5b/relu_1x1 <- inception_5b/1x1
I0424 09:25:39.713294 173392 net.cpp:367] inception_5b/relu_1x1 -> inception_5b/1x1 (in-place)
I0424 09:25:39.714007 173392 net.cpp:122] Setting up inception_5b/relu_1x1
I0424 09:25:39.714037 173392 net.cpp:129] Top shape: 10 384 7 7 (188160)
I0424 09:25:39.714056 173392 net.cpp:137] Memory required for data: 553997224
I0424 09:25:39.714073 173392 layer_factory.hpp:77] Creating layer inception_5b/3x3_reduce
I0424 09:25:39.714102 173392 net.cpp:84] Creating Layer inception_5b/3x3_reduce
I0424 09:25:39.714121 173392 net.cpp:406] inception_5b/3x3_reduce <- inception_5a/output_inception_5a/output_0_split_1
I0424 09:25:39.714149 173392 net.cpp:380] inception_5b/3x3_reduce -> inception_5b/3x3_reduce
I0424 09:25:39.718531 173392 net.cpp:122] Setting up inception_5b/3x3_reduce
I0424 09:25:39.718572 173392 net.cpp:129] Top shape: 10 192 7 7 (94080)
I0424 09:25:39.718592 173392 net.cpp:137] Memory required for data: 554373544
I0424 09:25:39.718616 173392 layer_factory.hpp:77] Creating layer inception_5b/relu_3x3_reduce
I0424 09:25:39.718636 173392 net.cpp:84] Creating Layer inception_5b/relu_3x3_reduce
I0424 09:25:39.718655 173392 net.cpp:406] inception_5b/relu_3x3_reduce <- inception_5b/3x3_reduce
I0424 09:25:39.718675 173392 net.cpp:367] inception_5b/relu_3x3_reduce -> inception_5b/3x3_reduce (in-place)
I0424 09:25:39.719321 173392 net.cpp:122] Setting up inception_5b/relu_3x3_reduce
I0424 09:25:39.719347 173392 net.cpp:129] Top shape: 10 192 7 7 (94080)
I0424 09:25:39.719364 173392 net.cpp:137] Memory required for data: 554749864
I0424 09:25:39.719382 173392 layer_factory.hpp:77] Creating layer inception_5b/3x3
I0424 09:25:39.719411 173392 net.cpp:84] Creating Layer inception_5b/3x3
I0424 09:25:39.719430 173392 net.cpp:406] inception_5b/3x3 <- inception_5b/3x3_reduce
I0424 09:25:39.719455 173392 net.cpp:380] inception_5b/3x3 -> inception_5b/3x3
I0424 09:25:39.727941 173392 net.cpp:122] Setting up inception_5b/3x3
I0424 09:25:39.727972 173392 net.cpp:129] Top shape: 10 384 7 7 (188160)
I0424 09:25:39.727989 173392 net.cpp:137] Memory required for data: 555502504
I0424 09:25:39.728009 173392 layer_factory.hpp:77] Creating layer inception_5b/relu_3x3
I0424 09:25:39.728034 173392 net.cpp:84] Creating Layer inception_5b/relu_3x3
I0424 09:25:39.728054 173392 net.cpp:406] inception_5b/relu_3x3 <- inception_5b/3x3
I0424 09:25:39.728071 173392 net.cpp:367] inception_5b/relu_3x3 -> inception_5b/3x3 (in-place)
I0424 09:25:39.728394 173392 net.cpp:122] Setting up inception_5b/relu_3x3
I0424 09:25:39.728418 173392 net.cpp:129] Top shape: 10 384 7 7 (188160)
I0424 09:25:39.728435 173392 net.cpp:137] Memory required for data: 556255144
I0424 09:25:39.728452 173392 layer_factory.hpp:77] Creating layer inception_5b/5x5_reduce
I0424 09:25:39.728487 173392 net.cpp:84] Creating Layer inception_5b/5x5_reduce
I0424 09:25:39.728523 173392 net.cpp:406] inception_5b/5x5_reduce <- inception_5a/output_inception_5a/output_0_split_2
I0424 09:25:39.728562 173392 net.cpp:380] inception_5b/5x5_reduce -> inception_5b/5x5_reduce
I0424 09:25:39.732255 173392 net.cpp:122] Setting up inception_5b/5x5_reduce
I0424 09:25:39.732286 173392 net.cpp:129] Top shape: 10 48 7 7 (23520)
I0424 09:25:39.732305 173392 net.cpp:137] Memory required for data: 556349224
I0424 09:25:39.732323 173392 layer_factory.hpp:77] Creating layer inception_5b/relu_5x5_reduce
I0424 09:25:39.732352 173392 net.cpp:84] Creating Layer inception_5b/relu_5x5_reduce
I0424 09:25:39.732370 173392 net.cpp:406] inception_5b/relu_5x5_reduce <- inception_5b/5x5_reduce
I0424 09:25:39.732389 173392 net.cpp:367] inception_5b/relu_5x5_reduce -> inception_5b/5x5_reduce (in-place)
I0424 09:25:39.733070 173392 net.cpp:122] Setting up inception_5b/relu_5x5_reduce
I0424 09:25:39.733099 173392 net.cpp:129] Top shape: 10 48 7 7 (23520)
I0424 09:25:39.733117 173392 net.cpp:137] Memory required for data: 556443304
I0424 09:25:39.733134 173392 layer_factory.hpp:77] Creating layer inception_5b/5x5
I0424 09:25:39.733161 173392 net.cpp:84] Creating Layer inception_5b/5x5
I0424 09:25:39.733181 173392 net.cpp:406] inception_5b/5x5 <- inception_5b/5x5_reduce
I0424 09:25:39.733206 173392 net.cpp:380] inception_5b/5x5 -> inception_5b/5x5
I0424 09:25:39.736281 173392 net.cpp:122] Setting up inception_5b/5x5
I0424 09:25:39.736312 173392 net.cpp:129] Top shape: 10 128 7 7 (62720)
I0424 09:25:39.736330 173392 net.cpp:137] Memory required for data: 556694184
I0424 09:25:39.736349 173392 layer_factory.hpp:77] Creating layer inception_5b/relu_5x5
I0424 09:25:39.736372 173392 net.cpp:84] Creating Layer inception_5b/relu_5x5
I0424 09:25:39.736390 173392 net.cpp:406] inception_5b/relu_5x5 <- inception_5b/5x5
I0424 09:25:39.736414 173392 net.cpp:367] inception_5b/relu_5x5 -> inception_5b/5x5 (in-place)
I0424 09:25:39.737113 173392 net.cpp:122] Setting up inception_5b/relu_5x5
I0424 09:25:39.737143 173392 net.cpp:129] Top shape: 10 128 7 7 (62720)
I0424 09:25:39.737162 173392 net.cpp:137] Memory required for data: 556945064
I0424 09:25:39.737179 173392 layer_factory.hpp:77] Creating layer inception_5b/pool
I0424 09:25:39.737205 173392 net.cpp:84] Creating Layer inception_5b/pool
I0424 09:25:39.737224 173392 net.cpp:406] inception_5b/pool <- inception_5a/output_inception_5a/output_0_split_3
I0424 09:25:39.737249 173392 net.cpp:380] inception_5b/pool -> inception_5b/pool
I0424 09:25:39.737344 173392 net.cpp:122] Setting up inception_5b/pool
I0424 09:25:39.737366 173392 net.cpp:129] Top shape: 10 832 7 7 (407680)
I0424 09:25:39.737382 173392 net.cpp:137] Memory required for data: 558575784
I0424 09:25:39.737397 173392 layer_factory.hpp:77] Creating layer inception_5b/pool_proj
I0424 09:25:39.737423 173392 net.cpp:84] Creating Layer inception_5b/pool_proj
I0424 09:25:39.737442 173392 net.cpp:406] inception_5b/pool_proj <- inception_5b/pool
I0424 09:25:39.737465 173392 net.cpp:380] inception_5b/pool_proj -> inception_5b/pool_proj
I0424 09:25:39.741514 173392 net.cpp:122] Setting up inception_5b/pool_proj
I0424 09:25:39.741551 173392 net.cpp:129] Top shape: 10 128 7 7 (62720)
I0424 09:25:39.741571 173392 net.cpp:137] Memory required for data: 558826664
I0424 09:25:39.741592 173392 layer_factory.hpp:77] Creating layer inception_5b/relu_pool_proj
I0424 09:25:39.741624 173392 net.cpp:84] Creating Layer inception_5b/relu_pool_proj
I0424 09:25:39.741645 173392 net.cpp:406] inception_5b/relu_pool_proj <- inception_5b/pool_proj
I0424 09:25:39.741664 173392 net.cpp:367] inception_5b/relu_pool_proj -> inception_5b/pool_proj (in-place)
I0424 09:25:39.741987 173392 net.cpp:122] Setting up inception_5b/relu_pool_proj
I0424 09:25:39.742012 173392 net.cpp:129] Top shape: 10 128 7 7 (62720)
I0424 09:25:39.742027 173392 net.cpp:137] Memory required for data: 559077544
I0424 09:25:39.742043 173392 layer_factory.hpp:77] Creating layer inception_5b/output
I0424 09:25:39.742069 173392 net.cpp:84] Creating Layer inception_5b/output
I0424 09:25:39.742100 173392 net.cpp:406] inception_5b/output <- inception_5b/1x1
I0424 09:25:39.742130 173392 net.cpp:406] inception_5b/output <- inception_5b/3x3
I0424 09:25:39.742148 173392 net.cpp:406] inception_5b/output <- inception_5b/5x5
I0424 09:25:39.742166 173392 net.cpp:406] inception_5b/output <- inception_5b/pool_proj
I0424 09:25:39.742184 173392 net.cpp:380] inception_5b/output -> inception_5b/output
I0424 09:25:39.742245 173392 net.cpp:122] Setting up inception_5b/output
I0424 09:25:39.742267 173392 net.cpp:129] Top shape: 10 1024 7 7 (501760)
I0424 09:25:39.742283 173392 net.cpp:137] Memory required for data: 561084584
I0424 09:25:39.742300 173392 layer_factory.hpp:77] Creating layer pool5/7x7_s1
I0424 09:25:39.742318 173392 net.cpp:84] Creating Layer pool5/7x7_s1
I0424 09:25:39.742336 173392 net.cpp:406] pool5/7x7_s1 <- inception_5b/output
I0424 09:25:39.742358 173392 net.cpp:380] pool5/7x7_s1 -> pool5/7x7_s1
I0424 09:25:39.743067 173392 net.cpp:122] Setting up pool5/7x7_s1
I0424 09:25:39.743100 173392 net.cpp:129] Top shape: 10 1024 1 1 (10240)
I0424 09:25:39.743119 173392 net.cpp:137] Memory required for data: 561125544
I0424 09:25:39.743135 173392 layer_factory.hpp:77] Creating layer pool5/drop_7x7_s1
I0424 09:25:39.743155 173392 net.cpp:84] Creating Layer pool5/drop_7x7_s1
I0424 09:25:39.743172 173392 net.cpp:406] pool5/drop_7x7_s1 <- pool5/7x7_s1
I0424 09:25:39.743191 173392 net.cpp:367] pool5/drop_7x7_s1 -> pool5/7x7_s1 (in-place)
I0424 09:25:39.743249 173392 net.cpp:122] Setting up pool5/drop_7x7_s1
I0424 09:25:39.743270 173392 net.cpp:129] Top shape: 10 1024 1 1 (10240)
I0424 09:25:39.743286 173392 net.cpp:137] Memory required for data: 561166504
I0424 09:25:39.743302 173392 layer_factory.hpp:77] Creating layer loss3/classifier_type
I0424 09:25:39.743332 173392 net.cpp:84] Creating Layer loss3/classifier_type
I0424 09:25:39.743350 173392 net.cpp:406] loss3/classifier_type <- pool5/7x7_s1
I0424 09:25:39.743369 173392 net.cpp:380] loss3/classifier_type -> loss3/classifier_type
I0424 09:25:39.743705 173392 net.cpp:122] Setting up loss3/classifier_type
I0424 09:25:39.743732 173392 net.cpp:129] Top shape: 10 8 (80)
I0424 09:25:39.743751 173392 net.cpp:137] Memory required for data: 561166824
I0424 09:25:39.743772 173392 layer_factory.hpp:77] Creating layer loss3/classifier_type_loss3/classifier_type_0_split
I0424 09:25:39.743791 173392 net.cpp:84] Creating Layer loss3/classifier_type_loss3/classifier_type_0_split
I0424 09:25:39.743809 173392 net.cpp:406] loss3/classifier_type_loss3/classifier_type_0_split <- loss3/classifier_type
I0424 09:25:39.743834 173392 net.cpp:380] loss3/classifier_type_loss3/classifier_type_0_split -> loss3/classifier_type_loss3/classifier_type_0_split_0
I0424 09:25:39.743856 173392 net.cpp:380] loss3/classifier_type_loss3/classifier_type_0_split -> loss3/classifier_type_loss3/classifier_type_0_split_1
I0424 09:25:39.743891 173392 net.cpp:380] loss3/classifier_type_loss3/classifier_type_0_split -> loss3/classifier_type_loss3/classifier_type_0_split_2
I0424 09:25:39.744004 173392 net.cpp:122] Setting up loss3/classifier_type_loss3/classifier_type_0_split
I0424 09:25:39.744025 173392 net.cpp:129] Top shape: 10 8 (80)
I0424 09:25:39.744042 173392 net.cpp:129] Top shape: 10 8 (80)
I0424 09:25:39.744058 173392 net.cpp:129] Top shape: 10 8 (80)
I0424 09:25:39.744074 173392 net.cpp:137] Memory required for data: 561167784
I0424 09:25:39.744091 173392 layer_factory.hpp:77] Creating layer loss3/loss3
I0424 09:25:39.744108 173392 net.cpp:84] Creating Layer loss3/loss3
I0424 09:25:39.744125 173392 net.cpp:406] loss3/loss3 <- loss3/classifier_type_loss3/classifier_type_0_split_0
I0424 09:25:39.744143 173392 net.cpp:406] loss3/loss3 <- label_data_1_split_6
…
