…
I0417 08:58:34.918167 29318 caffe.cpp:279] GPU device name: Tesla K80
I0417 08:58:35.413801 29318 net.cpp:294] The NetState phase (1) differed from the phase (0) specified by a rule in layer mnist1
I0417 08:58:35.414031 29318 net.cpp:51] Initializing net from parameters: 
name: "LeNet"
state {
  phase: TEST
  level: 0
  stage: ""
}
layer {
  name: "mnist2"
  type: "Data"
  top: "data"
  top: "label"
  include {
    phase: TEST
  }
  transform_param {
    scale: 0.00390625
  }
  data_param {
    source: "/local/tmp/jem_lenet/mnist_test_lmdb"
    batch_size: 100
    backend: LMDB
  }
}
layer {
  name: "conv1"
  type: "Convolution"
  bottom: "data"
  top: "conv1"
  param {
    lr_mult: 1
  }
  param {
    lr_mult: 2
  }
  convolution_param {
    num_output: 20
    kernel_size: 5
    stride: 1
    weight_filler {
      type: "xavier"
    }
    bias_filler {
      type: "constant"
    }
  }
}
layer {
  name: "pool1"
  type: "Pooling"
  bottom: "conv1"
  top: "pool1"
  pooling_param {
    pool: MAX
    kernel_size: 2
    stride: 2
  }
}
layer {
  name: "conv2"
  type: "Convolution"
  bottom: "pool1"
  top: "conv2"
  param {
    lr_mult: 1
  }
  param {
    lr_mult: 2
  }
  convolution_param {
    num_output: 50
    kernel_size: 5
    stride: 1
    weight_filler {
      type: "xavier"
    }
    bias_filler {
      type: "constant"
    }
  }
}
layer {
  name: "pool2"
  type: "Pooling"
  bottom: "conv2"
  top: "pool2"
  pooling_param {
    pool: MAX
    kernel_size: 2
    stride: 2
  }
}
layer {
  name: "ip1"
  type: "InnerProduct"
  bottom: "pool2"
  top: "ip1"
  param {
    lr_mult: 1
  }
  param {
    lr_mult: 2
  }
  inner_product_param {
    num_output: 500
    weight_filler {
      type: "xavier"
    }
    bias_filler {
      type: "constant"
    }
  }
}
layer {
  name: "relu1"
  type: "ReLU"
  bottom: "ip1"
  top: "ip1"
}
layer {
  name: "ip2"
  type: "InnerProduct"
  bottom: "ip1"
  top: "ip2"
  param {
    lr_mult: 1
  }
  param {
    lr_mult: 2
  }
  inner_product_param {
    num_output: 10
    weight_filler {
      type: "xavier"
    }
    bias_filler {
      type: "constant"
    }
  }
}
layer {
  name: "accuracy"
  type: "Accuracy"
  bottom: "ip2"
  bottom: "label"
  top: "accuracy"
  include {
    phase: TEST
  }
}
layer {
  name: "loss"
  type: "SoftmaxWithLoss"
  bottom: "ip2"
  bottom: "label"
  top: "loss"
}
I0417 08:58:35.414175 29318 layer_factory.hpp:77] Creating layer mnist2
I0417 08:58:35.414315 29318 db_lmdb.cpp:35] Opened lmdb /local/tmp/jem_lenet/mnist_test_lmdb
I0417 08:58:35.414384 29318 net.cpp:84] Creating Layer mnist2
I0417 08:58:35.414414 29318 net.cpp:380] mnist2 -> data
I0417 08:58:35.414463 29318 net.cpp:380] mnist2 -> label
I0417 08:58:35.428843 29318 data_layer.cpp:45] output data size: 100,1,28,28
I0417 08:58:35.433142 29318 net.cpp:122] Setting up mnist2
I0417 08:58:35.433185 29318 net.cpp:129] Top shape: 100 1 28 28 (78400)
I0417 08:58:35.433207 29318 net.cpp:129] Top shape: 100 (100)
I0417 08:58:35.433224 29318 net.cpp:137] Memory required for data: 314000
I0417 08:58:35.433259 29318 layer_factory.hpp:77] Creating layer label_mnist2_1_split
I0417 08:58:35.433291 29318 net.cpp:84] Creating Layer label_mnist2_1_split
I0417 08:58:35.433311 29318 net.cpp:406] label_mnist2_1_split <- label
I0417 08:58:35.433336 29318 net.cpp:380] label_mnist2_1_split -> label_mnist2_1_split_0
I0417 08:58:35.433357 29318 net.cpp:380] label_mnist2_1_split -> label_mnist2_1_split_1
I0417 08:58:35.433414 29318 net.cpp:122] Setting up label_mnist2_1_split
I0417 08:58:35.433435 29318 net.cpp:129] Top shape: 100 (100)
I0417 08:58:35.433452 29318 net.cpp:129] Top shape: 100 (100)
I0417 08:58:35.433468 29318 net.cpp:137] Memory required for data: 314800
I0417 08:58:35.433483 29318 layer_factory.hpp:77] Creating layer conv1
I0417 08:58:35.433519 29318 net.cpp:84] Creating Layer conv1
I0417 08:58:35.433537 29318 net.cpp:406] conv1 <- data
I0417 08:58:35.433560 29318 net.cpp:380] conv1 -> conv1
I0417 08:58:36.425592 29318 net.cpp:122] Setting up conv1
I0417 08:58:36.425671 29318 net.cpp:129] Top shape: 100 20 24 24 (1152000)
I0417 08:58:36.425719 29318 net.cpp:137] Memory required for data: 4922800
I0417 08:58:36.425773 29318 layer_factory.hpp:77] Creating layer pool1
I0417 08:58:36.425822 29318 net.cpp:84] Creating Layer pool1
I0417 08:58:36.425843 29318 net.cpp:406] pool1 <- conv1
I0417 08:58:36.425863 29318 net.cpp:380] pool1 -> pool1
I0417 08:58:36.425946 29318 net.cpp:122] Setting up pool1
I0417 08:58:36.425969 29318 net.cpp:129] Top shape: 100 20 12 12 (288000)
I0417 08:58:36.425987 29318 net.cpp:137] Memory required for data: 6074800
I0417 08:58:36.426009 29318 layer_factory.hpp:77] Creating layer conv2
I0417 08:58:36.426041 29318 net.cpp:84] Creating Layer conv2
I0417 08:58:36.426059 29318 net.cpp:406] conv2 <- pool1
I0417 08:58:36.426079 29318 net.cpp:380] conv2 -> conv2
I0417 08:58:36.429255 29318 net.cpp:122] Setting up conv2
I0417 08:58:36.429286 29318 net.cpp:129] Top shape: 100 50 8 8 (320000)
I0417 08:58:36.429303 29318 net.cpp:137] Memory required for data: 7354800
I0417 08:58:36.429325 29318 layer_factory.hpp:77] Creating layer pool2
I0417 08:58:36.429356 29318 net.cpp:84] Creating Layer pool2
I0417 08:58:36.429375 29318 net.cpp:406] pool2 <- conv2
I0417 08:58:36.429399 29318 net.cpp:380] pool2 -> pool2
I0417 08:58:36.429456 29318 net.cpp:122] Setting up pool2
I0417 08:58:36.429477 29318 net.cpp:129] Top shape: 100 50 4 4 (80000)
I0417 08:58:36.429492 29318 net.cpp:137] Memory required for data: 7674800
I0417 08:58:36.429508 29318 layer_factory.hpp:77] Creating layer ip1
I0417 08:58:36.429546 29318 net.cpp:84] Creating Layer ip1
I0417 08:58:36.429565 29318 net.cpp:406] ip1 <- pool2
I0417 08:58:36.429584 29318 net.cpp:380] ip1 -> ip1
I0417 08:58:36.433526 29318 net.cpp:122] Setting up ip1
I0417 08:58:36.433557 29318 net.cpp:129] Top shape: 100 500 (50000)
I0417 08:58:36.433573 29318 net.cpp:137] Memory required for data: 7874800
I0417 08:58:36.433605 29318 layer_factory.hpp:77] Creating layer relu1
I0417 08:58:36.433631 29318 net.cpp:84] Creating Layer relu1
I0417 08:58:36.433648 29318 net.cpp:406] relu1 <- ip1
I0417 08:58:36.433666 29318 net.cpp:367] relu1 -> ip1 (in-place)
I0417 08:58:36.434214 29318 net.cpp:122] Setting up relu1
I0417 08:58:36.434243 29318 net.cpp:129] Top shape: 100 500 (50000)
I0417 08:58:36.434260 29318 net.cpp:137] Memory required for data: 8074800
I0417 08:58:36.434276 29318 layer_factory.hpp:77] Creating layer ip2
I0417 08:58:36.434303 29318 net.cpp:84] Creating Layer ip2
I0417 08:58:36.434321 29318 net.cpp:406] ip2 <- ip1
I0417 08:58:36.434340 29318 net.cpp:380] ip2 -> ip2
I0417 08:58:36.435906 29318 net.cpp:122] Setting up ip2
I0417 08:58:36.435937 29318 net.cpp:129] Top shape: 100 10 (1000)
I0417 08:58:36.435956 29318 net.cpp:137] Memory required for data: 8078800
I0417 08:58:36.435976 29318 layer_factory.hpp:77] Creating layer ip2_ip2_0_split
I0417 08:58:36.435995 29318 net.cpp:84] Creating Layer ip2_ip2_0_split
I0417 08:58:36.436013 29318 net.cpp:406] ip2_ip2_0_split <- ip2
I0417 08:58:36.436038 29318 net.cpp:380] ip2_ip2_0_split -> ip2_ip2_0_split_0
I0417 08:58:36.436059 29318 net.cpp:380] ip2_ip2_0_split -> ip2_ip2_0_split_1
I0417 08:58:36.436120 29318 net.cpp:122] Setting up ip2_ip2_0_split
I0417 08:58:36.436142 29318 net.cpp:129] Top shape: 100 10 (1000)
I0417 08:58:36.436161 29318 net.cpp:129] Top shape: 100 10 (1000)
I0417 08:58:36.436177 29318 net.cpp:137] Memory required for data: 8086800
I0417 08:58:36.436193 29318 layer_factory.hpp:77] Creating layer accuracy
I0417 08:58:36.436215 29318 net.cpp:84] Creating Layer accuracy
I0417 08:58:36.436233 29318 net.cpp:406] accuracy <- ip2_ip2_0_split_0
I0417 08:58:36.436251 29318 net.cpp:406] accuracy <- label_mnist2_1_split_0
I0417 08:58:36.436275 29318 net.cpp:380] accuracy -> accuracy
…
